ReinforcementLearning/DeepQLearning/frozen_lake_dql.pt (torch, 3472 bytes, 4 tensors)

fc1.weight f4 [16, 16]
00000000: 8461 f63d 781d 1f3e c4b2 3a3e 3404 14be
00000010: c0b9 68be f2ff 46be 50da 81bd e0cc 61bd
00000020: ae3e 193e 0017 773c 70d5 26be 5c7c b93d
00000030: f472 71be 9bb7 4d3e acfe 39be 7845 cebd
00000040: 1c16 523e 8c46 76be 8dcc dd3d bc92 793e
00000050: fd2e 703e c4b5 cabd 4060 60be ba15 173e
00000060: f5a0 40bc 80b9 f0bc d821 12be ca76 6abe
00000070: b46b dc3d 95a3 da3c 90ba 7abe b0e9 04bd
00000080: f8c4 8cbd 7f74 813d 40d7 01be c97d 733d
00000090: 02a4 773e 984f 32be 4022 033d 1e0a 4cbe
000000a0: 4068 d63c a1d3 3f3d 2041 1c3c 3ccb eb3d
000000b0: f03d 593d 2024 dabd 6cc3 84bd a291 37be
000000c0: 365f f63d 24e1 55be 5554 233e 08be 43be
000000d0: 45cf 0fbe f057 3abe b376 1ebe ba1b 2b3e
000000e0: fea0 313e d469 873e 9065 8ebe f0e6 aabd
000000f0: 40b0 cebd 60c2 c73e 9eba 693e ba09 4ebe
00000100: 580b ffbd 8039 a13b 52ec 01be 1040 753d
00000110: cec0 62be 782c a2bd e422 6dbe 12cc 0c3e
00000120: 50e7 47bd 28d7 09bd 26dd 6bbe 98cb 85bd
00000130: 5201 123e a0a1 cc3d 750c 3a3e 643a ef3d
00000140: ad79 253e 6bf8 f23d d4c7 e73a b930 363d
00000150: 7b41 a13d 2002 073e 3251 8ebc d09e b1bc
00000160: 7052 bcbd 13d4 953d 3a9c 49be 7090 8f3c
00000170: 2890 87bd 4638 753e ca2f 0abe 0033 b93c
00000180: 680d e6bd f77d 603e fbfc 0b3e 9e51 1abe
00000190: 48ff 75be 201b 9bbd ff21 2dbd c02a b9bd
000001a0: 54b3 ebbd 6025 53be ce3e 26be 80de 523e
000001b0: 044d 823d 6413 d9bd af96 da3e 0c35 f9bd
000001c0: fd4d 34bd a364 0dbd baf7 c7bd f667 d8bd
000001d0: 28de 1cbe 0c22 09be bc3e ef3d aaa0 22be
000001e0: 654b 71be 3665 f53e 672a af3e 2ccc e2bd
000001f0: c006 28bc 832b 51bc d76c f83e 3cf9 4b3e
00000200: 9c15 8d3d b37e 033e e2aa 173e fa56 36be
00000210: b345 253e 10fe 0d3e f38a b3be aa9b 663e
00000220: 8f77 983e 9a16 573e 13d7 013c 5e10 793e
00000230: 5ce6 b43d 5f3b 2a3e 0cea aa3e 702e 753d
00000240: ec67 7bbd e880 823c c469 57be 9a14 71be
00000250: a488 24bb d0e7 6b3e 5814 5cba 987d d9bd
00000260: 3134 e23e 4605 9c3d af4f 273e 0447 84bd
00000270: d8a1 7abe b233 f13d ca54 5cbe e86f aa3d
00000280: b20d b53d 1c86 1bbe 9f80 d3bd 08c4 573e
00000290: 1dda c43d 58dc 0f3e ea7f c2bd 4094 cc3d
000002a0: 06ea 23be 64d8 b63e 13f7 27be f074 253d
000002b0: 609c a0bd 4d34 2b3e 79b9 933e 08f0 743e
000002c0: d0fe ea3c 2484 55be ce5c 773e e431 38be
000002d0: 06df 983e e0bd 033c 0832 79bd 0032 8cbd
000002e0: c722 b63c c070 76be faee 5dbe e001 02bd
000002f0: 22bb 3f3e 4454 3dbe c8d6 41bd c0b6 44bc
00000300: 3d09 573e 90b9 cd3c 0a01 05be dcee 95bd
00000310: 0072 01be 8005 d23c cd73 e13d aab1 07be
00000320: 8496 adbd 8048 223e 365f 2f3d c83a df3d
00000330: 0423 5abe 5b5a 2f3e 20d6 48bd ee94 46be
00000340: 1828 f3bc c486 84bd b726 b33c c685 7cbe
00000350: 056e 55bd cca4 4cbe 8192 80bd 801b 693c
00000360: 9933 8f3e 68cc 96bd 5431 80bd 98ce aabd
00000370: d26b 19be 9054 d83e 7403 48be 0470 5a3e
00000380: c306 873e 5e46 efbd 7c17 e93d dfcd ecbd
00000390: a21f a43e e893 5ebe d65e 6abe 06e0 50be
000003a0: 6696 00be 937e 65bd 8505 193f 8899 7ebe
000003b0: f8e8 51bd 5392 803d c296 7fbe 5e34 193e
000003c0: 3ec6 483d 62e3 8ebe b524 91be 4a27 9dbd
000003d0: fb48 ab3d def0 493e ede6 083e e45f ad3d
000003e0: f982 f43d 6873 913d 0fd8 d43e ac61 cfbd
000003f0: b829 f93d 0403 35be f7f7 953e e090 d8bc
0.120303184 0.15538585 0.18232256 -0.14454728 -0.22727108 -0.19433573 -0.06340468 -0.055127025
0.14965317 0.015081167 -0.16292357 0.09056923 -0.23579007 0.20089571 -0.18163556 -0.10071844
0.20516247 -0.24050349 0.108300306 0.24372381 0.23455425 -0.0989795 -0.21911716 0.14754382
-0.011757125 -0.029385328 -0.14270723 -0.22896877 0.1076273 0.02668933 -0.2448523 -0.032449424
-0.06873506 0.06321048 -0.12679768 0.05944613 0.24183658 -0.17413175 0.032015085 -0.19925734
0.026172757 0.046832684 0.009537011 0.11513373 0.053037584 -0.106514215 -0.06482586 -0.17926648
0.12029879 -0.20886666 0.15950139 -0.1911546 -0.14043911 -0.18197608 -0.15474968 0.16709796
0.1734657 0.26447928 -0.2781186 -0.08344829 -0.10092211 0.39015484 0.22825095 -0.20120898
-0.124533355 0.0049201846 -0.12687805 0.059875548 -0.22143862 -0.07918638 -0.23157841 0.13749722
-0.04880458 -0.033652455 -0.2303358 -0.06532973 0.14258316 0.09991765 0.18168814 0.11681059
0.16159697 0.11863788 0.0017683455 0.04448006 0.078738175 0.13184404 -0.017372701 -0.021682173
-0.09195411 0.073158406 -0.19688502 0.017524928 -0.066192925 0.23947248 -0.13494793 0.022607327
-0.11233026 0.21923052 0.13670723 -0.15070197 -0.24023163 -0.07573533 -0.04226875 -0.09041357
-0.115088135 -0.20619726 -0.16234896 0.2059269 0.06362346 -0.105994016 0.42693087 -0.12168321
-0.044019688 -0.034519803 -0.09764047 -0.10566704 -0.15319121 -0.13391894 0.116818875 -0.15881601
-0.23563917 0.4792878 0.34212038 -0.11074099 -0.010255516 -0.012766722 0.48520538 0.19919294
0.06888887 0.128413 0.1481128 -0.17806616 0.1613987 0.13866448 -0.35066947 0.22520319
0.29778716 0.21004716 0.007924813 0.2432265 0.08833 0.16624211 0.3338169 0.05985874
-0.061378404 0.015930608 -0.2103644 -0.23543015 -0.0025105858 0.23037648 -0.00083953654 -0.10619658
0.44180444 0.07618193 0.1633899 -0.06458858 -0.24475801 0.11777438 -0.2151672 0.08322126
0.08840503 -0.15187877 -0.10327267 0.21070874 0.09611914 0.14048898 -0.09497054 0.09989214
-0.16007242 0.35711968 -0.16402845 0.040394723 -0.07842326 0.1671917 0.28852442 0.2391969
0.028685957 -0.20851189 0.24156496 -0.17987782 0.29857653 0.008040875 -0.06083873 -0.06845474
0.02223338 -0.24066448 -0.21673194 -0.03174007 0.18723729 -0.18489176 -0.047323972 -0.012006462
0.20999618 0.025112897 -0.12988678 -0.073209494 -0.12641144 0.025637388 0.11008415 -0.13251367
-0.08475974 0.15847969 0.04281541 0.108998835 -0.2130242 0.17124312 -0.04903233 -0.1939275
-0.029682204 -0.06471017 0.021869047 -0.24660406 -0.052106876 -0.1998474 -0.062779434 0.014227748
0.27969053 -0.07363206 -0.062594086 -0.08340186 -0.14982536 0.42252016 -0.19532567 0.21331793
0.26372346 -0.11683343 0.113814324 -0.11562704 0.32055384 -0.2173611 -0.2288774 -0.20397958
-0.12557372 -0.056028914 0.5977405 -0.24863255 -0.051247567 0.06277909 -0.24959853 0.14961383
0.049017183 -0.27907854 -0.28348318 -0.076735094 0.08363529 0.1972079 0.13369341 0.08465555
0.119390436 0.0710209 0.4157109 -0.10126051 0.1216616 -0.17676932 0.29290745 -0.02643627

fc1.bias f4 [16]
00000000: 3e01 50be 9afd 963b 5927 80bd 238b 8c3e
00000010: fdd0 40be 5a60 6a3b a725 663c 2faa 753e
00000020: 5701 c93e 7383 793d 8fde 123e 7472 e2bc
00000030: 7197 9fbd 1ec6 7d3d 2834 e03d 9820 923e
-0.20312974 0.0046078684 -0.06257505 0.27449903 -0.18829723 0.0035762996 0.014047063 0.23990701
0.39258835 0.060916375 0.14342712 -0.027642466 -0.07792557 0.061956517 0.10947448 0.28540492

out.weight f4 [4, 16]
00000000: 32f7 683e 5606 8f3d d454 fdbd c970 e7bd
00000010: e018 833d 24c2 96bb 315d d2bc 9194 7c3e
00000020: b0dd 693e 039d 553e ab15 a0bd 5020 dd3d
00000030: 18ec 333e 774e 8abd 2d01 853e 3630 e93c
00000040: aa71 2dbd b7e9 92bd b43f 883e ba1a b23c
00000050: b9c6 4ebe f267 be3c 3568 c2bd e0a8 c73e
00000060: 2a8a cf3d 3c66 d93d 8870 0dbe aa27 853e
00000070: d6ae 8abb 5d9e 40be c4e1 e43e c2d6 af3e
00000080: a510 54be 50b1 39be 601b 3ebe 221c 963e
00000090: cba4 3fbe 2641 073e cf4d f53e 8a34 a63e
000000a0: c7e4 903e 281b e83e d321 b93e 1b5d 3bbe
000000b0: 64c9 8c3c 2c8a 5e3e 54fa 97be 0dbb bd3e
000000c0: 128f 63bd 7a66 31bd 06b2 86bd ff64 7b3d
000000d0: 0de8 94ba 6804 2a3e 4410 cc3d d4d6 80bd
000000e0: 8ab3 113e 109a a7bd 55bd 2e3c b417 1d3e
000000f0: a964 133e 98e3 a03e f75a e13c 9e8a 653e
0.22750548 0.0698363 -0.12369695 -0.11300809 0.06401229 -0.00460078 -0.025679203 0.24666049
0.22838473 0.20860676 -0.07816633 0.10797179 0.17570531 -0.06753247 0.2597746 0.028465372
-0.042344727 -0.07173484 0.26611102 0.02174126 -0.20192994 0.023242924 -0.09492532 0.3899603
0.101337746 0.10615203 -0.13812459 0.26006824 -0.004232268 -0.18810411 0.44703496 0.34343535
-0.20709474 -0.18134046 -0.1856513 0.2931834 -0.18715207 0.13208446 0.47910926 0.3246196
0.28299543 0.4533322 0.36158618 -0.18297236 0.017185874 0.21732396 -0.29683173 0.3705677
-0.055556364 -0.04331062 -0.06576924 0.061375614 -0.001136066 0.16603243 0.0996404 -0.06290975
0.14228645 -0.08183682 0.010665257 0.15341073 0.14393868 0.3142364 0.027509196 0.2241616

out.bias f4 [4]
00000000: 27f4 c43d 8abc af3d d3cf dbbd 3095 203e
0.09616881 0.08580883 -0.10732999 0.1568191
