ReinforcementLearning/DeepQLearning/frozen_lake_dql.pt (torch, 3472 bytes, 4 tensors)

fc1.weight f4 [16, 16]
00000000: 5736 473d 567d ab3d ea2b 65be efcd e93d
00000010: 4313 ca3d c018 c4bc 0601 54be b83a 3d3e
00000020: 34a0 df3d eeb8 55be 3e1f f4bd 80fc 6e3e
00000030: e83a 87bd 3764 35be 91c3 b4bd 4062 8fbb
00000040: 315e 493e 27ea 233e c20c 513d 8339 4fbe
00000050: 6d52 d23d 50f0 c6bd b699 46bd ea80 6dbe
00000060: 4b9e 38be aedf a83e 634c 4c3e 60c4 153c
00000070: 9474 843d de50 4dbc d311 7c3e f2a8 21be
00000080: 6a99 cd3d 7e71 863c c84e 7dbc ab49 253d
00000090: 2aa1 863d a44a a3bd ca66 afbe 6835 c73d
000000a0: 0264 d73e 8f33 1b3d 7021 5d3e 3817 45be
000000b0: f0e2 1c3d 8f0e e2bd f144 b53d 6838 333d
000000c0: 236c 463d db4d 14bd b8aa 233e 9e0f 79be
000000d0: 55d4 493b 4016 45bd b0c2 f43e ee53 31be
000000e0: 3f51 8ebd c020 38be 25d6 963e ca04 333e
000000f0: ce16 5dbe e98e b5bd 238f 333d 506e f03c
00000100: b29c c83d b9e8 65bd 6cc4 4a3e 1958 0abd
00000110: a05f 06bd 38a7 063d 2815 90bd d834 3cbe
00000120: 84ef 79be 9ddd 9d3e 4919 1f3e 10a4 49bd
00000130: 8463 373e f847 4fbd 201c fabd 8a37 27be
00000140: 45ce 503e bc79 cc3e 5a74 5cbe e0c4 30bd
00000150: 1f9f 303e 06dc 493e 33ee 2a3e 50bf a3bd
00000160: 245d ffbd fce3 3dbe 664d 2bbe 9840 a23d
00000170: 9ab5 093e 7227 723d 8400 45be bae1 273e
00000180: 4eb6 89be 7c59 2ebc da37 263d ee96 d4bd
00000190: c5d0 12be b441 0dbe c647 85be f015 e43d
000001a0: 5c3b 513e ad67 84be 2337 193d 4e3a 59be
000001b0: 146e 453e 8509 89be 9cc5 ff3e b094 7fbe
000001c0: ad04 4d3e 68ab 973b 7225 29be 8001 85bd
000001d0: de03 c7bd 50e6 a2bd 697a 39bb 06ff 63be
000001e0: 6c38 8dbd 48f9 ddbd 8e9d 0cbe 00f6 3e3b
000001f0: e680 59be 4e49 07bd e50c f53e 7417 17be
00000200: a931 783e 8f29 d7bd c56d e53d 12a8 f8bd
00000210: ff25 f53e ecf1 ed3d 0f35 0b3e 14ca d03d
00000220: ec6b 62be d0b6 e3bd 3abf 903e ee67 353e
00000230: e0fd 8b3d a080 a03e ee2f 67be 264f 013e
00000240: 70e9 bfbc 62ac 06be d07c 51bd 80ce 1dbc
00000250: a024 403e de35 263e 18c2 66be f66d 563e
00000260: c4c8 c5bd e334 4c3d 4f0e 253e 56c4 74be
00000270: 6060 753e 86f6 803d 60f0 0f3d 3e31 32be
00000280: 9353 05be c166 3bbe 9137 e63d 0c64 623d
00000290: 0b0a b33e 5669 0b3e 244e 4f3e 8646 26be
000002a0: a6ef fcbd 1ed0 b33e 0ce0 f53e 8008 f7bb
000002b0: 6eb7 693e 5f41 4bbe 7735 e13d 8ad5 183e
000002c0: 1adb b4bb fb87 65be 93e4 d83c 8e85 8abd
000002d0: 37c6 9bbe b263 64be ff23 ad3d 2450 a13d
000002e0: 0d89 04bd e533 b1be b763 f8bd d08a 893c
000002f0: 7abb 13be 5836 e03e 113f 8a3e 64b1 f1bd
00000300: d497 8bbd c0ef aa3b 605e 463d b045 0cbd
00000310: f84e 053d 5005 2fbe c003 eabd 0ca6 be3d
00000320: 2888 51bd 2cfc a7bd ac67 18be d0a0 983c
00000330: 5890 7ebd 88aa 273d e049 db3c 4085 d5bc
00000340: ac5d 45bd 9523 c7bd b1ae e6bd 9d75 65be
00000350: dbef 6fbe 4aa9 423e 7693 07be c228 553e
00000360: cbe3 1abe 6e27 2a3f 2848 25be cc2b 58be
00000370: 0895 8d3d 9908 0a3f 3e28 ba3e 0023 573b
00000380: 67a8 e63d 938e 533e 6a65 8d3c acb8 c7bd
00000390: f851 eabd fe8f 13be 6327 f1bb c0da 623e
000003a0: 270b 0a3f 1088 77bd a03e 6cbe 0839 3bbe
000003b0: ecf3 7ebe cc71 c0bd 3438 7a3d b6be 59be
000003c0: 5bc0 3fbe ab59 283e 15da 9bbd 5b63 833e
000003d0: dede 1ebe d02c 80bd 04f4 13be ea31 353e
000003e0: 6283 7bbe a6c4 61be 96f7 29be 9411 203e
000003f0: ea75 06be 43c4 513e 8e4d 10be 248d 9abd
0.048635807 0.08373515 -0.22380033 0.11416232 0.09866955 -0.023937583 -0.20703515 0.1847943
0.10919228 -0.20871326 -0.119200215 0.23338509 -0.06603032 -0.1771401 -0.08826364 -0.004375726
0.19664837 0.16007291 0.051037557 -0.20236783 0.10269628 -0.09713805 -0.048486434 -0.23193708
-0.18029134 0.32983154 0.19951014 0.009141058 0.06467548 -0.012531487 0.24616174 -0.15787104
0.10039027 0.01641154 -0.015460677 0.04035346 0.06573708 -0.07973221 -0.3425811 0.09726983
0.42068487 0.037890967 0.21594787 -0.19247139 0.038302362 -0.11037933 0.0885104 0.043754965
0.04844297 -0.03620706 0.15983093 -0.24322364 0.0030796726 -0.048116922 0.47804785 -0.17317173
-0.0694909 -0.17981243 0.29460254 0.17482296 -0.2159073 -0.088651486 0.043837678 0.029349476
0.09795512 -0.056130145 0.19801491 -0.033775423 -0.03280604 0.032874316 -0.07035285 -0.18379533
-0.24407774 0.3083314 0.1553699 -0.049228728 0.17909056 -0.050605744 -0.12212396 -0.1632978
0.20391186 0.39936626 -0.2152876 -0.043156505 0.172482 0.19712839 0.16692428 -0.07995474
-0.12468937 -0.18544 -0.16728744 0.079224765 0.13448182 0.05911965 -0.19238478 0.16394702
-0.268969 -0.010641452 0.040580608 -0.1038035 -0.14337452 -0.13794595 -0.2603132 0.11136997
0.204328 -0.25860348 0.037406098 -0.21213648 0.19280273 -0.26765075 0.4995545 -0.24959064
0.20021315 0.0046285875 -0.1651819 -0.06494427 -0.097175345 -0.07954085 -0.0028301722 -0.22265252
-0.06895527 -0.10838562 -0.13731977 0.0029138327 -0.21240577 -0.033028893 0.478614 -0.1475504
0.24237694 -0.105059735 0.112025775 -0.12141432 0.4788055 0.116184086 0.13594459 0.10194793
-0.22111481 -0.11118853 0.28270894 0.17715427 0.06835532 0.31348133 -0.22576877 0.12627849
-0.023426741 -0.13151696 -0.05114442 -0.009631753 0.18763971 0.16231486 -0.22534978 0.20940384
-0.09657434 0.049855124 0.1611874 -0.23903021 0.23962545 0.062970206 0.03514135 -0.17401597
-0.13020162 -0.18300916 0.11241067 0.055271193 0.349686 0.13614401 0.20244652 -0.1623784
-0.12350397 0.35119718 0.48022497 -0.007538855 0.22823879 -0.19849156 0.10996526 0.14925209
-0.005519283 -0.22415154 0.02647618 -0.06763755 -0.30424663 -0.22303656 0.08454131 0.07876614
-0.032357264 -0.34609905 -0.12128394 0.016789824 -0.14426985 0.4379146 0.2700124 -0.11801413
-0.06816068 0.0052165687 0.048429847 -0.034246147 0.032546014 -0.1709187 -0.114264965 0.09309015
-0.05115524 -0.08202395 -0.14883298 0.018631369 -0.062149376 0.040934116 0.026768625 -0.026064515
-0.048185036 -0.097235836 -0.112637885 -0.22408147 -0.23431341 0.19009891 -0.13239846 0.20816329
-0.15125959 0.66466415 -0.16140807 -0.21110457 0.06913191 0.5391937 0.36358827 0.0032827258
0.11262589 0.20659856 0.017260272 -0.0975202 -0.114414155 -0.14410397 -0.0073594316 0.22153759
0.5392327 -0.060432494 -0.23070765 -0.18283474 -0.24897736 -0.09396705 0.061088756 -0.21264157
-0.18725722 0.16440456 -0.07609955 0.2566174 -0.15514705 -0.06258547 -0.14448553 0.17694822
-0.24561837 -0.22047672 -0.16598353 0.15631706 -0.13130918 0.20485024 -0.14092085 -0.07546452

fc1.bias f4 [16]
00000000: 3bae 263e 3c79 433e 77b7 c93e 5d33 a93d
00000010: c9c1 2b3d 40cb b6bc d9c5 883e 8dfa 4a3d
00000020: 8265 dc3d 5d72 8ebd 4788 423e 9473 b13e
00000030: 80ba 45be 2a3a 6f3e 51d6 d63b 5ec3 0f3e
0.16277401 0.19089216 0.39397785 0.0826175 0.041932855 -0.022313714 0.26713446 0.04955535
0.107615486 -0.06955407 0.18997298 0.34658492 -0.19309425 0.23362032 0.00655631 0.1403937

out.weight f4 [4, 16]
00000000: dcf1 a43e c763 a53e 3b87 9d3e e5c3 17bc
00000010: c70d 153e 477f 793d 0ce9 833e b4f2 893e
00000020: 321b 42be 1990 22be 6b4b a03e 204a 33be
00000030: 9c20 87bd 6078 8abd d394 883d 1ec5 7fbe
00000040: 8eb0 73be 22c6 7e3e 9079 c6bd 3616 8d3e
00000050: 47d6 d03d da83 77be 4edb 7b3d 419e 963e
00000060: 2fa0 093f ef37 8cbd 236f a63e 8554 753e
00000070: 08b6 84bd 289c b53e c5ba c1be fcc1 64be
00000080: ba81 1dbe 5d56 6f3e 5f9b 993e da8e 39be
00000090: 36b7 fcbb 79ca 1cbe 4ef5 4e3e 56ba 2a3e
000000a0: 9faf 39be 853f 4dbe 23fc b7be f964 883e
000000b0: 8027 a1bd 123e 053f 0066 9a3e 5d87 793e
000000c0: 1834 08be b42f e5bd e5f9 593e 6206 043c
000000d0: 5fbd 82be 01d3 bb3e 4c9b c23e 9f87 b2bd
000000e0: 8cc1 c23e bd93 053e 2f95 52be 6b64 c83e
000000f0: 38c4 1cbe f048 8bbd 760c 1bbe 58c2 6bbc
0.32215774 0.32302687 0.30767235 -0.0092630135 0.14556037 0.060912397 0.25763738 0.2694298
-0.18955687 -0.15875281 0.3130754 -0.17508745 -0.065980166 -0.06761241 0.06669011 -0.24977538
-0.23797819 0.24880269 -0.09691155 0.27556008 0.1019712 -0.24171391 0.061488442 0.29417613
0.53760046 -0.06846606 0.32506666 0.23958023 -0.06480032 0.354707 -0.37837806 -0.22339624
-0.15381518 0.23372789 0.3000135 -0.181209 -0.00771227 -0.15311612 0.20210764 0.16672644
-0.181334 -0.20043762 -0.35934553 0.26639536 -0.07868862 0.52047837 0.30155945 0.24368043
-0.13301122 -0.11190739 0.21286733 0.008058162 -0.25535104 0.3668442 0.38009107 -0.08717274
0.3803829 0.13044639 -0.20564722 0.39139113 -0.15309227 -0.06801021 -0.15141472 -0.014389597

out.bias f4 [4]
00000000: e3cf 4f3e e29c 463e a453 243e f3c5 953e
0.20294146 0.19395784 0.16047531 0.29252586
