ReinforcementLearning/DDPG/actor.pth (torch, 20212 bytes, 5 tensors)

fc1.weight f4 [64, 3]
0	0x3eea663a	0.45781118
1	0xbe37b43f	-0.17939852
2	0xbd91769e	-0.071027026
3	0x3fad7953	1.355265
4	0xc08b764c	-4.3581905
5	0xbeaa9a50	-0.33320856
6	0xbe9a4ea0	-0.3013811
7	0xbccfdcd2	-0.02537385
8	0xbba41b80	-0.005008161
9	0x3f6ee18f	0.93312925
10	0x3f78d3ff	0.9719848
11	0x3d69035d	0.056887973
12	0x3e656893	0.22403173
13	0x4016cd5c	2.3562841
14	0xbf30a81f	-0.6900653
15	0x4086bb67	4.2103763
16	0xbeb03a60	-0.34419537
17	0x3f4fcc25	0.81170875
18	0xc066a04b	-3.6035335
19	0xc009f9a7	-2.1558626
20	0xbfb850bb	-1.4399637
21	0xbfa1da94	-1.264483
22	0xc0954de8	-4.66576
23	0xbf0ac834	-0.54211736
24	0x3f1c5830	0.61072063
25	0x3dc4b3be	0.096045956
26	0xbd474fd6	-0.04866012
27	0x3e9e9eb3	0.30980453
28	0xbec0f444	-0.3768636
29	0xbd5e1080	-0.054214954
30	0x3f5f2c9f	0.8717746
31	0x3e35c7ce	0.17752
32	0xbcbffa01	-0.02343464
33	0xbf3bd3d1	-0.7337008
34	0x3f45ff55	0.7734273
35	0x3c246626	0.01003412
36	0x400dba6f	2.214504
37	0x401c0529	2.437815
38	0x3fc0c14a	1.5058987
39	0x3e405f11	0.18786265
40	0x3f7d3b38	0.98918486
41	0x3ba2edf7	0.0049722153
42	0xc063806a	-3.5547128
43	0xc063e7be	-3.5610194
44	0xbf18c7c2	-0.59679806
45	0x3d975c70	0.07390678
46	0xbe96ecb5	-0.29477468
47	0xbb2ba4ee	-0.0026190835
48	0xbf2adabe	-0.66740024
49	0x3ef88246	0.4853689
50	0x3af86d6a	0.0018953506
51	0xbedaf2a5	-0.42763248
52	0x3f123517	0.5711226
53	0x3bc1ea12	0.005917796
54	0xc08d146e	-4.408744
55	0xc047e1e2	-3.1231618
56	0xbe174a81	-0.14774515
57	0xc0430156	-3.0469565
58	0xc006c9cf	-2.1060674
59	0xbec56495	-0.385533
60	0x400d47ee	2.2075152
61	0xc0553c07	-3.3317888
62	0xbfb0645d	-1.3780628
63	0x3e1ef973	0.15524845
64	0x409ad29f	4.8382106
65	0xbf4f254e	-0.809163
66	0x407181c4	3.7735453
67	0x3f96627f	1.1748809
68	0xbf998192	-1.1992667
69	0x3f0547b0	0.5206251
70	0x3f545deb	0.8295581
71	0x3e2617fa	0.16220084
72	0x3f39276d	0.72325784
73	0xbe9a7195	-0.3016478
74	0xbcdc8b97	-0.02692203
75	0x3dacedd1	0.084437974
76	0x3f1c1006	0.6096195
77	0xbd0f206b	-0.034943026
78	0xbec97f25	-0.39354816
79	0xbd453cc1	-0.048153643
80	0xbc0774fd	-0.008267638
81	0xbe63a634	-0.2223137
82	0x3f3907f6	0.7227777
83	0x3c8320f4	0.016006924
84	0x3ef7965a	0.48356897
85	0x3e9f2700	0.31084442
86	0x3d0186ea	0.031622805
87	0xbf0ececf	-0.55784315
88	0x3f8e11f1	1.1099225
89	0xbb42082a	-0.0029606917
90	0xbfa8cdc3	-1.3187793
91	0xbfbdd7fb	-1.4831537
92	0xc01b0d50	-2.4226875
93	0x3ff6874b	1.9260038
94	0x408d399f	4.413284
95	0x3f7adddc	0.9799478
96	0x3ecdf06b	0.40222487
97	0x3f01fa8b	0.50772923
98	0x3be09d13	0.006854662
99	0x403fb6b3	2.995526
100	0x4000cf1d	2.0126412
101	0xbf5b4ad7	-0.8566107
102	0x3fefadf1	1.8724958
103	0x3f35a410	0.70953465
104	0x3e2ae855	0.1669019
105	0xc0135a07	-2.3023698
106	0xc0223e16	-2.5350394
107	0xc0089c8c	-2.1345549
108	0xbedd6c9d	-0.43246928
109	0xbd9e2b20	-0.07723069
110	0x3b7452c6	0.0037280782
111	0x3f5e99e2	0.86953557
112	0xbd8d1e66	-0.06890564
113	0x3d192cfc	0.037396416
114	0x3f89b43c	1.0758128
115	0xbe427129	-0.1898848
116	0xbd60f3c8	-0.054919988
117	0xbfc760c3	-1.5576404
118	0x3fd58ea1	1.6684152
119	0xbfd7d03c	-1.6860423
120	0xbebd5d24	-0.36985123
121	0xbd093084	-0.033493534
122	0x3b4c24d8	0.003114989
123	0x3df134a5	0.11777619
124	0x3e44d2c4	0.19221026
125	0x3d494ccf	0.049145516
126	0x40833a6f	4.100883
127	0xbf894e6c	-1.0727057
128	0xbf5fc68b	-0.8741233
129	0x40322e89	2.7840903
130	0xbfbd4810	-1.4787617
131	0xbfdc12d7	-1.719325
132	0x3fe17740	1.7614517
133	0xc09719b3	-4.721887
134	0xbf7871d5	-0.97048694
135	0x3e8fa409	0.28054836
136	0x3e9b386b	0.3031648
137	0xbc2867bc	-0.010278638
138	0xbdfb2eea	-0.122648075
139	0x3f4ff9c1	0.8124047
140	0xbd2bbb74	-0.041926816
141	0x3f46daf4	0.77677846
142	0x3fec0c30	1.8441219
143	0xba603e8e	-0.0008554243
144	0x3f86bad9	1.0525771
145	0xbee193c6	-0.44058055
146	0xbeec7691	-0.4618421
147	0x3ec2160d	0.37907448
148	0xbe3f1bb6	-0.18662915
149	0xbd49edc0	-0.049299
150	0xbdf3d9a4	-0.11906746
151	0x39c09cdc	0.00036737963
152	0xba9c23e9	-0.0011912558
153	0xbfa893d1	-1.317011
154	0xbf2adbfb	-0.66741914
155	0xbfb2a45d	-1.395641
156	0x40189313	2.3839767
157	0x4030db9f	2.7634046
158	0xbf7c297b	-0.98500794
159	0x3ea95539	0.33072832
160	0xbe835be7	-0.25656053
161	0xbd080f8b	-0.033217948
162	0x39419a3c	0.00018463371
163	0xbe96b2e0	-0.29433346
164	0xbba6be9c	-0.0050886404
165	0x4028ced9	2.637625
166	0xc0805d85	-4.011416
167	0xbfad3c68	-1.353406
168	0x3fe5f3de	1.7965047
169	0xc090e7e3	-4.5283065
170	0xbfeea08f	-1.8642749
171	0x402d9953	2.7124832
172	0xc03bd3b9	-2.9347975
173	0xbf82a974	-1.0207963
174	0x3e9d6119	0.30738142
175	0x3f892643	1.0714802
176	0x3b87a056	0.0041389866
177	0x3da9ca74	0.08290568
178	0xbe35ad8f	-0.17741989
179	0xbd727143	-0.059190046
180	0x3f021144	0.50807595
181	0x3f017c82	0.5058061
182	0xbc85ab93	-0.016317165
183	0xbe783601	-0.24239351
184	0x3e677c7b	0.2260608
185	0x3ac77dab	0.0015219947
186	0xc005bab5	-2.0895207
187	0xc00c8b60	-2.1960068
188	0x3cbd85ea	0.023135144
189	0x40956a18	4.669201
190	0xbf549360	-0.83037376
191	0xbfb3f1cc	-1.4058166

fc1.bias f4 [64]
0	0xbfae3bfe	-1.3612058
1	0xc05e1b0c	-3.4704008
2	0xbf6f2e31	-0.9342986
3	0xbfd51f84	-1.6650243
4	0xc0755df6	-3.83386
5	0xbf73167e	-0.94956195
6	0xbfc6a711	-1.5519735
7	0xc0443477	-3.0657022
8	0xbfb523c8	-1.4151545
9	0xbf6c272e	-0.92247283
10	0xbf82bf29	-1.0214587
11	0xbf9aeef5	-1.2104174
12	0xc06a4ed6	-3.6610618
13	0xbf8b94f2	-1.090483
14	0xc04edbb7	-3.2321603
15	0xbf144ce4	-0.57929826
16	0xbf585b3a	-0.845142
17	0xbf8e8a24	-1.1135907
18	0xc0521ad3	-3.2828872
19	0x400c8472	2.1955838
20	0xc01a3fbf	-2.4101408
21	0xbe84a0ec	-0.25904024
22	0xc062ded2	-3.5448499
23	0xc015b311	-2.3390543
24	0xbf7816bb	-0.96909684
25	0xbf8188b6	-1.0119846
26	0xbf098173	-0.5371315
27	0xbf74a355	-0.95561725
28	0xbfaab63d	-1.3336865
29	0xbfa81bd5	-1.3133494
30	0x3f33e319	0.702684
31	0xbebcf6bd	-0.36906996
32	0xbf48e82e	-0.7847928
33	0xbffc5626	-1.971379
34	0xbf9055b7	-1.1276158
35	0xbf1283d2	-0.5723239
36	0xbf50bfca	-0.81542647
37	0xbfa3fe7f	-1.2812041
38	0xbfe1634e	-1.760843
39	0xbfed48a5	-1.8537794
40	0xbece1a2a	-0.40254337
41	0xbf2ecf6b	-0.68285245
42	0xc036d02d	-2.856456
43	0xc0a68894	-5.204172
44	0xc064acab	-3.5730388
45	0xbfc1afc5	-1.5131766
46	0xbfa0a4aa	-1.2550251
47	0xc002ad80	-2.0418396
48	0xc04dc10e	-3.2149081
49	0xbf5d050e	-0.8633584
50	0xbf2743ec	-0.65338016
51	0xbf8a3759	-1.0798141
52	0xbfc388b8	-1.5276098
53	0xbf2fac30	-0.6862211
54	0xbf235442	-0.6380044
55	0xbfbbeb92	-1.4681265
56	0xbfc09ca6	-1.5047805
57	0xbfc46017	-1.5341824
58	0xbf9f0640	-1.2423782
59	0xbf2fa237	-0.68606895
60	0xbf85ca1a	-1.0452302
61	0xbeb6d7e3	-0.35711583
62	0xc0532c8a	-3.2995934
63	0xc0786b92	-3.8815656

fc2.weight f4 [64, 64]
0	0xbcbe711d	-0.023247296
1	0x3bb30507	0.005463246
2	0xbd27f831	-0.04100818
3	0xbd80ddca	-0.06292303
4	0xbdd79d01	-0.10527993
5	0xbe3be351	-0.18348433
6	0xbddf37b2	-0.10899295
7	0xbdcae7e4	-0.09907511
8	0xbce837fc	-0.028347008
9	0xbe265b3a	-0.16245738
10	0xbcbff2ae	-0.023431148
11	0xbdb72506	-0.089426085
12	0xbe829a85	-0.25508514
13	0xbde3732f	-0.11105954
14	0x3db2b7c6	0.08726458
15	0xbd904b36	-0.07045595
16	0x3d1be739	0.038062308
17	0x3df6fde6	0.12060146
18	0x39baec00	0.00035652518
19	0xbe170872	-0.14749315
20	0xbda7c4ff	-0.08191871
21	0xbe076bb2	-0.13224676
22	0xbdcc2860	-0.099686384
23	0xbd9890ee	-0.07449518
24	0xbd6f5b8b	-0.05843691
25	0x3d121038	0.03566
26	0xbb943600	-0.004523039
27	0x3d040d03	0.03223897
28	0x3d6d4647	0.05792835
29	0xbe208041	-0.15673925
30	0x3d7e13cc	0.0620306
31	0xbea31c06	-0.31857318
32	0xbd280f48	-0.0410302
33	0xbdc42bdb	-0.09578677
34	0xbd1bcb4b	-0.038035672
35	0xbd71bc18	-0.05901727
36	0xbdf0c132	-0.11755599
37	0xbdd76037	-0.105163984
38	0x3de02e64	0.10946348
39	0xbcb23ed0	-0.021758467
40	0x3ca98a18	0.020695731
41	0xbd5c86be	-0.053839438
42	0x3c1ff4c8	0.00976295
43	0xbda13550	-0.07871497
44	0x3d3a6a60	0.045511603
45	0xbe1275c7	-0.14302741
46	0xbe2990eb	-0.16559188
47	0xbe22acdb	-0.15886252
48	0x3d1f18b5	0.03884192
49	0x3cf2fe02	0.029662136
50	0xbe344537	-0.17604528
51	0xbdeaf344	-0.114721805
52	0xbcc2a223	-0.023758953
53	0xbe2421d4	-0.1602853
54	0x3ca2c934	0.019871332
55	0x3c611860	0.013738722
56	0xbe33d382	-0.17561153
57	0x3c8f011c	0.017456584
58	0xbd823b36	-0.0635895
59	0x3d5a630c	0.053317115
60	0xbcafa0d5	-0.021438995
61	0x3cfe530a	0.031045455
62	0xbe30bb6f	-0.17259
63	0xbbf023c0	-0.0073284805
64	0xbcef9484	-0.029245622
65	0x3c94619b	0.018112948
66	0xbe126fbb	-0.14300434
67	0x3d8801be	0.06640957
68	0xbe8fc41b	-0.28079304
69	0xbe697387	-0.22797976
70	0xbe4ce4ef	-0.20009206
71	0x3d893657	0.06699818
72	0xbc848256	-0.01617543
73	0xbda38a5e	-0.07985376
74	0xbde9a35d	-0.11408112
75	0x3e0495de	0.12947795
76	0xbe7f5f5a	-0.24938717
77	0xbcb7e1a7	-0.022446467
78	0xbe26fbb8	-0.1630696
79	0xbdc689b6	-0.09694235
80	0x3d0c9b8d	0.034328032
81	0xbdc1053e	-0.09424828
82	0xbd0c900f	-0.034317072
83	0xbe85186d	-0.25995198
84	0xbe041986	-0.12900361
85	0xbf2c51b7	-0.67312187
86	0x3d3d22e8	0.046175867
87	0xbe2e45b4	-0.17018777
88	0xbe5ee173	-0.2176569
89	0xbda2861c	-0.079357356
90	0xbcd83ae8	-0.026395276
91	0xbdfe67b6	-0.12422125
92	0x3db3a30d	0.08771334
93	0xbc22ed05	-0.009944205
94	0x3e56742e	0.20942757
95	0xbee5b19b	-0.44862065
96	0xbd84c6c2	-0.064832225
97	0xbebefa10	-0.37300158
98	0xbdcb5ee5	-0.09930209
99	0xbc7cdaf6	-0.015433064
100	0xbd83012a	-0.063967064
101	0x3e94254e	0.2893471
102	0xbd8ba05e	-0.06817697
103	0xbe96adbc	-0.29429424
104	0xbdefc7c3	-0.117080234
105	0xbe60155a	-0.21883145
106	0xbec0b7d9	-0.37640265
107	0xbd47c810	-0.04877478
108	0x3ea05a28	0.31318784
109	0xbe19b7b4	-0.15011483
110	0xbe3001f6	-0.17188248
111	0xbe0607b8	-0.13088882
112	0xbed44882	-0.4146157
113	0xbda4e6cb	-0.08051833
114	0x3d3a3d26	0.045468472
115	0xbe81166c	-0.2521242
116	0xbeb3540a	-0.35025054
117	0xbeae3b44	-0.3402959
118	0x3d8e9cda	0.06963511
119	0xbdb9392d	-0.090441085
120	0xbe581968	-0.21103442
121	0xbe3f2681	-0.18667032
122	0xbe54c6e6	-0.20778999
123	0xbc8fccae	-0.017553654
124	0xbe0cbf33	-0.13744812
125	0xbe383b87	-0.17991458
126	0xbd010cf1	-0.031506483
127	0xbe7b09b0	-0.24515414
128	0x3d948061	0.07251049
129	0x3c2408fd	0.010011909
130	0xbc3c70f7	-0.011501542
131	0x3de54c1a	0.11196156
132	0xbd4318fb	-0.047631245
133	0xbeb31e24	-0.34983933
134	0xbdf5d676	-0.12003796
135	0xbc993d02	-0.018705849
136	0xbdd2fde0	-0.10302329
137	0xbcfb1e71	-0.030654164
138	0x3d567ae8	0.052363306
139	0xbe2b6b42	-0.16740134
140	0xbdd03e2a	-0.10168107
141	0x3c329cb0	0.010901615
142	0xbd8bfb40	-0.068350315
143	0x3d811dad	0.06304488
144	0xbcb92b21	-0.022603573
145	0xbe55b4e3	-0.20869784
146	0x3c87338d	0.016504074
147	0xbea152b0	-0.31508398
148	0x3d5c8ce0	0.053845286
149	0xbeb60957	-0.35554
150	0xbdce901e	-0.10086082
151	0x3ddd0741	0.10792399
152	0x3db7fbb9	0.08983559
153	0xbd4ca668	-0.049963385
154	0xbe203575	-0.15645392
155	0xbdf730fd	-0.12069891
156	0xbb0861eb	-0.0020810317
157	0xbd4b459e	-0.04962694
158	0xbd2ca5a3	-0.04215015
159	0xbe7abab9	-0.24485292
160	0x3d96d90f	0.073656194
161	0x3d7925ad	0.060826946
162	0x3dde89cf	0.10866129
163	0xbe523b9a	-0.20530549
164	0x3dbf5325	0.093420304
165	0xbe1cc0d5	-0.15307935
166	0x3da84894	0.08216968
167	0xbe5e8742	-0.21731284
168	0xbe848393	-0.25881633
169	0xbe222873	-0.15835743
170	0x3d84f63f	0.0649228
171	0x3da709da	0.08156176
172	0xbd150362	-0.03638018
173	0x3d23c80e	0.03998571
174	0x3dad67ac	0.084670395
175	0x3dc3ea22	0.09566142
176	0xbd79984b	-0.060936254
177	0xbd94c179	-0.072634645
178	0x3d2ee704	0.042700782
179	0xbc9826ed	-0.018573249
180	0xbdc378af	-0.09544503
181	0x3dbdc73e	0.09266518
182	0x3d187537	0.03722116
183	0xbd7acef8	-0.061232537
184	0xbdf3c8de	-0.11903547
185	0x3e1327d7	0.14370666
186	0xbd619241	-0.05507112
187	0xbd79c5b7	-0.06097957
188	0xbcc1c08a	-0.02365138
189	0xbdbd30e8	-0.09237844
190	0xbde5a0bf	-0.112123005
191	0xbcd6ddf9	-0.026228892
192	0x3eb286fa	0.34868604
193	0xc0b735ac	-5.7253017
194	0x3c876eba	0.01653229
195	0x3f6a0c18	0.91424704
196	0x3dda6ef0	0.10665691
197	0x3efd692f	0.4949431
198	0xbef26cf3	-0.47348747
199	0xc0a53690	-5.1629105
200	0x3e3a59c0	0.181983
201	0x3dc86962	0.09785725
202	0xbe86e149	-0.26343754
203	0x3e5dd45c	0.2166304
204	0xc03c05cf	-2.9378545
205	0x3e9906fb	0.29888138
206	0xbeb6f39d	-0.35732737
207	0x3e7342f9	0.23756017
208	0xbd23a7e4	-0.039955035
209	0x3df2ee1b	0.11861821
210	0xbf544524	-0.82918
211	0xbe351ac4	-0.17685992
212	0x400b87e5	2.1801693
213	0xc05ba33a	-3.4318376
214	0x403fee63	2.998925
215	0x3e1a3e52	0.15062836
216	0xbe661fd1	-0.22473074
217	0x3e17deb8	0.14831054
218	0x3e3691d8	0.17829072
219	0x3e8354e5	0.25650707
220	0x3c9f3fe4	0.019439645
221	0xbe37af24	-0.17937905
222	0xc079d24b	-3.9034603
223	0xc0d019af	-6.503135
224	0x3e1b06e2	0.15139344
225	0x4042d845	3.04445
226	0xbfe701a9	-1.8047382
227	0xbf805734	-1.0026612
228	0x3e0ff7c6	0.14059362
229	0x3f2c2ca4	0.67255616
230	0x3f2bc0cb	0.67091054
231	0xbf83133a	-1.0240242
232	0x3e81417d	0.25245276
233	0xbe808b96	-0.25106496
234	0x401452c2	2.3175511
235	0x4019cd9b	2.4031742
236	0xc0af268e	-5.4734564
237	0xbe8321e0	-0.25611782
238	0xbe5e116a	-0.2168633
239	0xbf0c8d3b	-0.54903
240	0xbf466892	-0.7750331
241	0xbe7a105f	-0.24420308
242	0xbbb99a10	-0.0056641176
243	0xbfe2b5f9	-1.7711784
244	0xc0166af4	-2.350278
245	0xbcb46465	-0.022020528
246	0x3e50e5a6	0.20400104
247	0x3ef89d4e	0.48557514
248	0x3be491f1	0.0069754054
249	0x3e5caccd	0.21550293
250	0xbdb83acf	-0.08995592
251	0x3d5198bb	0.051171046
252	0x3ed5baf3	0.41744193
253	0xbcbc4e42	-0.022986535
254	0xbf4cbc77	-0.79975075
255	0x409d0092	4.9063196

fc2.bias f4 [64]
0	0xbec7dcc7	-0.39035627
1	0xbef4e192	-0.47828346
2	0xbeedbf36	-0.46434945
3	0xc020fcbb	-2.5154254
4	0xbdfc8f96	-0.12332074
5	0xbfa95137	-1.322791
6	0xbf177c35	-0.591739
7	0xbdba45f7	-0.09095376
8	0x3fd1cf77	1.6391438
9	0xbed2455e	-0.41068548
10	0xc042b945	-3.042558
11	0xbfc00eaf	-1.5004481
12	0xbe8af949	-0.27143314
13	0xbfd94956	-1.6975505
14	0xbf77071c	-0.96495223
15	0xbf2adb8a	-0.6674124
16	0xc00ce880	-2.2016907
17	0xbee9b859	-0.4564846
18	0xbef1c1f5	-0.4721829
19	0xbed43416	-0.41445988
20	0xbe0c4b67	-0.13700639
21	0xbdf19593	-0.11796107
22	0x3de4823e	0.11157654
23	0xbe9abb16	-0.3022086
24	0xbf4be52e	-0.79646575
25	0xbe542b01	-0.2071953
26	0xbf1743ac	-0.59087634
27	0xbe23a159	-0.15979518
28	0xbf08755a	-0.53304064
29	0xbee31b02	-0.44356543
30	0xbe8a6b83	-0.2703515
31	0xc01def15	-2.4677174
32	0xbea4fadf	-0.3222265
33	0xbe460ae1	-0.19340087
34	0xbe9187cd	-0.2842392
35	0xbef475dd	-0.47746173
36	0x3fcb26eb	1.5871252
37	0xbfb39c49	-1.403207
38	0xbec82da5	-0.39097324
39	0x3ded8b14	0.11598793
40	0xbfa844a3	-1.3145946
41	0xbf526169	-0.82179886
42	0xbf930f37	-1.1489018
43	0xbf72f6c0	-0.9490776
44	0xbf033a37	-0.51260704
45	0x3f3cda0e	0.73770225
46	0xbdfa1aac	-0.122121185
47	0xbeb8a02c	-0.360597
48	0xbf004d61	-0.5011807
49	0xbfcb00a9	-1.5859576
50	0xbeb3c74f	-0.35112998
51	0xbf3fe8ea	-0.74964774
52	0xbe00c3a7	-0.12574635
53	0xbe34939b	-0.17634432
54	0xbd621052	-0.055191346
55	0xbe15b609	-0.14620222
56	0xbf094952	-0.536275
57	0xbf240998	-0.6407714
58	0xbfc49458	-1.5357771
59	0xbfca1bd7	-1.5789746
60	0xbefc44ad	-0.49271145
61	0xbf00b7e2	-0.5028058
62	0xbd848938	-0.06471485
63	0xbe514278	-0.20435512

fc3.weight f4 [1, 64]
0	0x3e9aad2d	0.30210248
1	0x3e88f6d7	0.26750824
2	0x3d2c37e0	0.042045474
3	0x3fa0b1ca	1.2554257
4	0xbd0a76fa	-0.03380487
5	0xbf1150c5	-0.5676387
6	0xbe984289	-0.29738262
7	0x3cfb8dd6	0.030707281
8	0x406dc3e4	3.7150812
9	0x3e31b3c2	0.17353728
10	0xbf18d0d8	-0.5969367
11	0x407af3a8	3.9211216
12	0x3cf38b2e	0.029729452
13	0x3f9a2e88	1.204545
14	0x3dc9f6d5	0.098615326
15	0x3e898ced	0.2686533
16	0x3da0a3cb	0.07843741
17	0x3e3295d5	0.17439969
18	0xb7ddb9e7	-2.643182e-05
19	0xbde98059	-0.114014335
20	0xbc8df1a1	-0.017327132
21	0x3997efb6	0.00028979563
22	0xbe185cde	-0.14879176
23	0xbe593f13	-0.21215467
24	0xbe0ccd91	-0.13750292
25	0xbd1c309a	-0.038132288
26	0x3c68c06b	0.014206032
27	0x3d35cdd1	0.044385735
28	0x3e370aff	0.17875288
29	0xbe7cf186	-0.24701509
30	0xbda5b0a2	-0.08090331
31	0xbd112538	-0.035435885
32	0xbd430a8a	-0.047617473
33	0xbdff9bb9	-0.124808736
34	0xbdc65c78	-0.09685606
35	0xbe9c45c7	-0.30521986
36	0x3fc172dc	1.5113177
37	0x3e7c257c	0.24623674
38	0x3b7d94d2	0.003869344
39	0x3fd7080d	1.6799332
40	0xbfac6afb	-1.3470148
41	0x3e8f5849	0.27997044
42	0xbf2b5c76	-0.6693796
43	0x3da195c0	0.07889891
44	0x3e349cbc	0.17637914
45	0x3e5e16d0	0.2168839
46	0x3cd3528e	0.025796201
47	0x3e710588	0.23537266
48	0x3e8eb4f7	0.2787244
49	0x3e6beee4	0.23040348
50	0x3e54c292	0.20777348
51	0x3dc52c40	0.09627581
52	0x3bbbd57f	0.005732238
53	0x3d83d64d	0.06437359
54	0xbd2466f2	-0.04013724
55	0x3c13d5fa	0.009023184
56	0xbeb49d9e	-0.35276502
57	0xbe99a767	-0.3001053
58	0x3fe70a98	1.8050108
59	0xbf7ce98b	-0.9879386
60	0x3e616b95	0.22013696
61	0x3dbe90ec	0.093049854
62	0xbd57aa89	-0.05265287
63	0xbe046a0a	-0.12931076
