ReinforcementLearning/DDPG/critic.pth (torch, 20478 bytes, 5 tensors)

fc1.weight f4 [64, 4]
0	0xbf889bb1	-1.0672513
1	0x3ee0f3a5	0.43935886
2	0x3e72c441	0.23707677
3	0x3e7ab676	0.24483666
4	0xbf027a89	-0.50968224
5	0x3fe5e7be	1.7961347
6	0xbe5d81e4	-0.2163158
7	0xbe21e4d5	-0.15809949
8	0xbf4ca8a4	-0.79944825
9	0x3eeaba40	0.45845222
10	0xbf05089b	-0.51966256
11	0xbe86f5c1	-0.2635937
12	0xbf45a609	-0.77206475
13	0x400ef319	2.2335875
14	0x3ed69fdb	0.41918835
15	0x3e1dad5c	0.15398163
16	0xbeecbb03	-0.4623643
17	0x3ef4ac3f	0.47787663
18	0x3f453c3f	0.77045053
19	0xbcfe9178	-0.031075224
20	0x3d341158	0.043961853
21	0x3fdebc12	1.7401145
22	0x3e641030	0.222718
23	0x3e6a31aa	0.22870508
24	0xc011b67e	-2.2767634
25	0xbeeb2428	-0.45926023
26	0xbe8b5c18	-0.272187
27	0x3cbd79ff	0.023129461
28	0xc003780d	-2.0542023
29	0x3e8a6216	0.2702796
30	0x3f432055	0.7622121
31	0x3ee4f119	0.44715193
32	0xbeca42d3	-0.39504108
33	0x3f16a23e	0.5884131
34	0x3e2b77f3	0.16744976
35	0x3e5f4ab7	0.21805845
36	0xbf82b1e9	-1.0210544
37	0x3f60e4f3	0.8784935
38	0x3e9c6124	0.30542862
39	0x3db86c17	0.090049915
40	0xbf7aa9d5	-0.97915393
41	0xbfd9573e	-1.6979749
42	0xbe8489b5	-0.25886312
43	0x3d45a203	0.04825021
44	0xc000d665	-2.0130856
45	0x3f81b073	1.0131973
46	0xbf14ed48	-0.5817456
47	0xbc97a0bf	-0.018509267
48	0x3e0c0908	0.1367532
49	0xbfd1ad56	-1.6381023
50	0xbebb5c7d	-0.36594
51	0xbe7a94d2	-0.24470833
52	0xbedb61ae	-0.4284796
53	0xbf937d2c	-1.1522574
54	0x3f5899a8	0.8460946
55	0x3eaadf32	0.3337341
56	0x4004edee	2.077022
57	0xbf165ff6	-0.58740175
58	0xbe964a2f	-0.29353473
59	0xbeae3316	-0.3402335
60	0xbf9b71b4	-1.2144074
61	0x3f888275	1.0664812
62	0x3eab9c7d	0.3351783
63	0x3d4f9cca	0.050686635
64	0xbf431826	-0.7620872
65	0xbee31284	-0.44350064
66	0xbe8928c7	-0.26788923
67	0xbe35a9e5	-0.17740591
68	0x3ffe7e3f	1.9882277
69	0xbe20e1ce	-0.15711138
70	0xbe5e6a3b	-0.21720211
71	0x3dc88f2e	0.09792934
72	0x3fffd062	1.9985468
73	0xbbec274f	-0.0072068344
74	0x3cfa3644	0.030543454
75	0xbdf26d37	-0.11837237
76	0xbfb670e3	-1.42532
77	0x3f70988f	0.93982786
78	0x3ea29c35	0.31759802
79	0x3da8055c	0.08204147
80	0x3fdffcfc	1.749908
81	0xc001d7b4	-2.0287905
82	0xbf25ca5a	-0.6476189
83	0x3ecb7592	0.39738137
84	0xbf5e019e	-0.8672122
85	0x3fa19d86	1.2626197
86	0x3ebf1617	0.3732154
87	0x3e047b28	0.12937605
88	0xbf62bc13	-0.8856823
89	0xbee10c46	-0.43954676
90	0x3eef34ff	0.4672012
91	0x3e2348f2	0.15945795
92	0xbfe8db5b	-1.8191942
93	0x3fdb96f1	1.7155439
94	0xbeb8448b	-0.35989794
95	0xbe78f364	-0.24311596
96	0xbfeb22bb	-1.8369974
97	0x3fed4445	1.8536459
98	0x3d55359f	0.05205309
99	0x3ea9fbe2	0.33199984
100	0xbf874366	-1.0567443
101	0xbf5e5096	-0.86841714
102	0xbebf777b	-0.37395844
103	0xbdfb97f6	-0.122848436
104	0x400e0de9	2.219599
105	0x3f06c15e	0.52638805
106	0xbe010861	-0.12600853
107	0xbda0f114	-0.07858482
108	0x3f79b56e	0.97542465
109	0x3fde277c	1.73558
110	0x3eef6c0a	0.46762115
111	0x3e8b0e9a	0.27159578
112	0xbf1c871a	-0.6114365
113	0x3eeed97b	0.466503
114	0xbf1bc5d1	-0.6084872
115	0xbdf52d59	-0.1197154
116	0xbfb4aa06	-1.4114387
117	0xbfd9b92f	-1.7009639
118	0xbf096613	-0.5367138
119	0x3dc5f796	0.09666364
120	0xbfb32185	-1.3994604
121	0xbfd7f9d7	-1.687312
122	0xbefe8966	-0.49714202
123	0x3ee155d6	0.440108
124	0x3fc6b323	1.5523418
125	0xbf1adb54	-0.6049092
126	0xbf38b486	-0.72150457
127	0xbf78bce1	-0.97163206
128	0xbf958790	-1.1681995
129	0x3f171952	0.5902301
130	0x3ea0735c	0.31338012
131	0xbd938a01	-0.072040565
132	0xbf344fa5	-0.7043403
133	0x3e243c5b	0.16038649
134	0xbe6b19b6	-0.22959027
135	0xbdf19bca	-0.117972925
136	0x3d11386a	0.03545419
137	0x3f8a13c2	1.078728
138	0xbf63ba82	-0.88956463
139	0xbd9f3d75	-0.07775394
140	0xbfaf0be5	-1.3675505
141	0xbf6187a7	-0.88097614
142	0xbeb6f5b0	-0.3573432
143	0xbe2c110e	-0.16803381
144	0x3f86fe2e	1.054632
145	0xbfafdfbc	-1.3740153
146	0xbf2650e9	-0.6496721
147	0x3f8dd97c	1.1081996
148	0xbebc7a68	-0.3681214
149	0x3fc95ce8	1.5731478
150	0x3f4dc677	0.8038096
151	0x3ccb7939	0.024838077
152	0xbdc58f42	-0.09646465
153	0xbffc12a3	-1.9693187
154	0xbee2c585	-0.4429132
155	0x3db12f95	0.08651654
156	0xbf0f77d3	-0.5604221
157	0xc034eb29	-2.826853
158	0xbf25d50f	-0.64778227
159	0x3a1114ce	0.0005534411
160	0xbfa5619e	-1.2920415
161	0xbf650311	-0.89457804
162	0xbea3925c	-0.319476
163	0x3e074287	0.13208972
164	0xbfb434d0	-1.4078617
165	0xbf93ffb9	-1.1562415
166	0xbefd5ffa	-0.49487287
167	0xbddb5e50	-0.10711348
168	0xbf9855cc	-1.1901183
169	0xc022a5e7	-2.5413759
170	0xbf26c3d2	-0.6514255
171	0xbd924a6e	-0.071431026
172	0xbf8ab067	-1.0835084
173	0xbf4e35b3	-0.8055069
174	0xbec6f593	-0.38859233
175	0xbdb72689	-0.08942897
176	0xbf9b7ea6	-1.2148025
177	0xbe3c0ea3	-0.18364958
178	0x3f3ef17e	0.7458724
179	0x3e056b5a	0.13029233
180	0x3eafb28c	0.34315908
181	0xbef817c1	-0.48455623
182	0x3e0fd708	0.14046872
183	0xbf1f2e4b	-0.6218001
184	0xbfb756d9	-1.4323379
185	0x3f509c1f	0.8148822
186	0x3e946c07	0.28988668
187	0xbc595bd8	-0.013266526
188	0xbf5146b2	-0.817485
189	0xbf853272	-1.040602
190	0x3e918c83	0.28427514
191	0x3e8bd211	0.27308705
192	0x3f4d3e26	0.80172956
193	0x3f141401	0.57843024
194	0x3ea07818	0.31341624
195	0xbc8af82f	-0.016964046
196	0xbfaf3715	-1.3688685
197	0x3fb498c1	1.4109117
198	0x3ef404f9	0.47660044
199	0x3db098c7	0.0862289
200	0xbf9d4cb9	-1.2289039
201	0x3f70a02a	0.9399439
202	0x3ecfa576	0.40555924
203	0x3d373a3f	0.044733282
204	0x3f444f28	0.7668328
205	0xc00c2862	-2.1899648
206	0xbeaae34a	-0.33376533
207	0x3f03bc03	0.5145876
208	0xbd628514	-0.055302694
209	0x4009e471	2.154568
210	0x3efef020	0.49792576
211	0x3dcc568d	0.09977446
212	0x3eaa5d03	0.33274087
213	0x3faf6ec2	1.3705676
214	0xbcfea804	-0.031085975
215	0x3c5c73d2	0.013455348
216	0x3e23d898	0.16000593
217	0xbecf9410	-0.4054265
218	0xbf3c8f29	-0.73655945
219	0xbecdb857	-0.40179703
220	0xbfa130ee	-1.2593057
221	0x3fa21fb2	1.2665923
222	0xbe90dbcf	-0.282927
223	0xbc863662	-0.016383354
224	0x3f5488c6	0.830212
225	0xbfa4d989	-1.2878886
226	0xbee5a071	-0.4484897
227	0x3f016709	0.50547844
228	0xbf8a0758	-1.0783491
229	0xbf021362	-0.50810826
230	0xbebf1004	-0.37316906
231	0xbe4666e9	-0.19375195
232	0xbf207075	-0.62671596
233	0x3fdf75c4	1.7457814
234	0x3ee2a80a	0.4426883
235	0x3dc52fbf	0.096282475
236	0xbf78466c	-0.96982455
237	0x3fe2309e	1.7671087
238	0x3ef3d327	0.47622034
239	0x3e3a5497	0.18196331
240	0xbf9ea82d	-1.2395073
241	0x3f803bec	1.0018287
242	0x3ed75827	0.42059442
243	0xbb976ec5	-0.004621359
244	0xbf38cd66	-0.72188413
245	0x3fe7fc78	1.8123922
246	0x3ea4c1b2	0.32179028
247	0x3dae7158	0.08517712
248	0xbf2e1017	-0.679933
249	0xc02cd4cf	-2.7004888
250	0xbeb6a7ea	-0.35674983
251	0xbe4330af	-0.1906154
252	0x3f5295c1	0.82259756
253	0x3ecc458f	0.3989682
254	0x3e2f0dba	0.1709508
255	0x3e09734b	0.13422887

fc1.bias f4 [64]
0	0x3f51530d	0.8176735
1	0xbf2200a2	-0.63282216
2	0x3f9274cf	1.1441897
3	0x3d96c774	0.073622614
4	0xbf10e010	-0.5659189
5	0x3e6b9fbe	0.23010156
6	0xbf0c50e7	-0.5481095
7	0x3f45d039	0.7727085
8	0x3f493925	0.7860282
9	0x3f3d629c	0.7397859
10	0x3e881802	0.26580817
11	0x3ed302c5	0.4121305
12	0x3d9fe617	0.07807558
13	0xbdf97390	-0.12180245
14	0xbe7f1729	-0.24911179
15	0x3f44d497	0.76886886
16	0x3f6e0ea1	0.9299107
17	0x3f3428b4	0.7037461
18	0x3f8bd86b	1.092542
19	0x3f2f4307	0.6846165
20	0xbedcd490	-0.43130922
21	0x3ee62fc4	0.44958317
22	0x3f704687	0.93857616
23	0x3f2dbfcc	0.67870784
24	0xbeb2e35b	-0.34939083
25	0x3f554fbf	0.8332481
26	0x3f512040	0.81689835
27	0xbf0d5c5b	-0.5521905
28	0xbf369aeb	-0.71330136
29	0x3f010c25	0.50409156
30	0x3df2d889	0.11857707
31	0x3e9abe47	0.30223295
32	0x3f5a3411	0.852357
33	0x3f5253e4	0.82159257
34	0xbfa2be6c	-1.2714362
35	0x3f23c342	0.63969815
36	0x3f3a50be	0.7277945
37	0xbead575d	-0.33855715
38	0x3f478d04	0.7794955
39	0xbed20cf4	-0.41025507
40	0x3ea1afde	0.3157949
41	0x3f86b6a0	1.0524483
42	0x3e81b69c	0.25334632
43	0x3f66f5b9	0.90218693
44	0xbf87b790	-1.0602894
45	0x3e802e99	0.2503555
46	0x3f214c82	0.63007367
47	0x3f844047	1.0332116
48	0x3ea4fd6c	0.32224596
49	0x3f5194ca	0.8186766
50	0x3f65f5f6	0.8982843
51	0x3f75a6cf	0.95957655
52	0xbf0352b7	-0.5129809
53	0x3e8307cc	0.25591886
54	0xbe882ad2	-0.2659517
55	0xbf4802ba	-0.7812916
56	0x3f3816fb	0.71910065
57	0x3fa20b00	1.2659607
58	0x3d948f19	0.07253856
59	0x3ee13412	0.4398504
60	0x3f5723b3	0.8403885
61	0x3e46b38a	0.19404426
62	0xbee9c888	-0.45660806
63	0x3f503994	0.8133786

fc2.weight f4 [64, 64]
0	0x3cd03f07	0.025420679
1	0x3b6649d1	0.0035139213
2	0x3d5e2bcb	0.054240983
3	0xbe0ccf8d	-0.1375105
4	0xbdd79df7	-0.10528176
5	0x3d02df9b	0.031951528
6	0xbd9cced2	-0.07656635
7	0xbe03a6fc	-0.12856668
8	0x3d4bbf8e	0.049743228
9	0xbd932d24	-0.07186344
10	0xbcc52277	-0.024064286
11	0xbd12f88a	-0.035881557
12	0xbdad34aa	-0.084573105
13	0xbd856415	-0.0651323
14	0xbe256b1a	-0.16154137
15	0xbd2a9687	-0.04164746
16	0xbdf07095	-0.11740223
17	0x3bfd4a49	0.0077298027
18	0x3d4a4c7f	0.04938936
19	0xbdac5f7a	-0.08416648
20	0x3d30594f	0.04305392
21	0xbe003110	-0.12518716
22	0xbd8ec1ea	-0.0697058
23	0xbdabd14e	-0.08389531
24	0xbd1c9093	-0.038223814
25	0xbe2b3f47	-0.16723357
26	0xbdde6aca	-0.10860212
27	0xbcd5949c	-0.026071839
28	0x3d8a65a0	0.06757665
29	0xbdb989f2	-0.09059514
30	0xbcf9fa34	-0.030514814
31	0xbe281f91	-0.16418292
32	0xbdf64a16	-0.120258495
33	0x3d563e70	0.05230564
34	0x3d9afcab	0.07567724
35	0xbe1f55d1	-0.1556008
36	0xbe03f188	-0.12885106
37	0x3cb983b8	0.022645816
38	0xbdc1eac4	-0.09468606
39	0xbcec11c4	-0.028817065
40	0x3cc44df7	0.023962958
41	0x3d9675fb	0.07346722
42	0xbddf595c	-0.10905716
43	0xbe27abbd	-0.16374107
44	0xbdc9b0b8	-0.098481596
45	0xbc99e076	-0.01878379
46	0xbdab0eb3	-0.08352413
47	0xbdc3fdff	-0.0956993
48	0xbdc5fab9	-0.09666962
49	0xbd177b7a	-0.03698299
50	0xbccf15a6	-0.025278877
51	0x3bb0f69d	0.0054004923
52	0x3db761af	0.089541785
53	0xbc2e0336	-0.010620883
54	0xbdae9a60	-0.085255384
55	0x3d598461	0.053104762
56	0x3c83ba78	0.016080126
57	0x3d898dd9	0.067165084
58	0xbe03b45a	-0.12861767
59	0x3df19090	0.11795151
60	0xbdfd5717	-0.12370127
61	0xbe260df2	-0.16216257
62	0x3da82a04	0.08211139
63	0xbc111c67	-0.008856869
64	0x3eb3f5cf	0.35148475
65	0x3f0e2808	0.5552983
66	0xbf1cc825	-0.61242896
67	0x3e781575	0.24226935
68	0x3cd51669	0.026011663
69	0x3ebece03	0.3726655
70	0xc0597b24	-3.398141
71	0x3e39b50d	0.18135472
72	0x3e8f852e	0.28031296
73	0x3e15dca9	0.14634956
74	0x3e7e96d9	0.24862231
75	0x3fa7c290	1.3106251
76	0xbeff7415	-0.4989325
77	0x3e008959	0.12552394
78	0x3f95dfa3	1.1708874
79	0x3c8f11e5	0.017464587
80	0xbf80e33b	-1.0069345
81	0x3f3598c6	0.7093624
82	0x3ea63eae	0.32469696
83	0x3e29ea6f	0.16593336
84	0x3f00b383	0.50273913
85	0x3e1a67b6	0.15078625
86	0x3e2ee3ab	0.17079036
87	0x3e639991	0.2222655
88	0x3ecda2d9	0.40163305
89	0xbffd42eb	-1.9786047
90	0xbe792851	-0.24331786
91	0xbec5a122	-0.38599497
92	0x3e152ba5	0.1456743
93	0xc088753c	-4.264311
94	0xc0549827	-3.3217866
95	0x3f9a426f	1.2051524
96	0x3e22cfe7	0.15899621
97	0xbf0ccf93	-0.55004233
98	0x3f453aaf	0.7704267
99	0xc020604a	-2.505877
100	0x3f87d81e	1.0612829
101	0x3de94021	0.11389185
102	0xbfa31c5e	-1.2743032
103	0xc0ae2988	-5.4425697
104	0xc018ceab	-2.387614
105	0xc068d519	-3.6380064
106	0xc0cf86ac	-6.4851894
107	0xc0081d9b	-2.126807
108	0xbd0a0cbd	-0.033703554
109	0x3ef40c5f	0.47665688
110	0x3e4d586d	0.20053263
111	0x3e9cf927	0.30658838
112	0x3e7559a1	0.23959972
113	0xbc3044be	-0.010758577
114	0x3e895955	0.26825967
115	0x3f98b06e	1.1928842
116	0xbe1e4c59	-0.15458812
117	0x3f10a6bd	0.5650442
118	0x3d2e82b6	0.042605124
119	0x406a68e2	3.6626515
120	0x3effee3f	0.49986455
121	0xc0101ac9	-2.2516348
122	0xbcc58605	-0.024111757
123	0x3dee2177	0.11627477
124	0x3e05b2df	0.13056515
125	0x3db63022	0.08895899
126	0xc02ae832	-2.670422
127	0x3ee9bf13	0.4565359
128	0x3cf22fee	0.02956387
129	0xbd9502de	-0.072759375
130	0xbdfb0949	-0.122576304
131	0xbd032419	-0.032016847
132	0xbe04365b	-0.1291136
133	0xbdacbd9c	-0.084346026
134	0xbd713bf9	-0.058895085
135	0xbd010dec	-0.031507418
136	0xbd7e5dd7	-0.06210121
137	0xbddf6c72	-0.10909356
138	0xbd9021fa	-0.070377305
139	0x3d5389fa	0.051645257
140	0xb8ce73dd	-9.844427e-05
141	0xbdfa3028	-0.12216216
142	0xbc9c1530	-0.019053072
143	0xbd07b0db	-0.033127647
144	0x391146fc	0.00013854721
145	0xbcfead48	-0.031088486
146	0xbd4b27c8	-0.049598485
147	0xbda4ed05	-0.080530204
148	0x3cad8c50	0.02118507
149	0x3d25062e	0.040289097
150	0xbcb8e333	-0.022569275
151	0x3d979743	0.07401898
152	0xbcf2645b	-0.029588869
153	0x3d336841	0.043800596
154	0xbd85c87a	-0.065323785
155	0xbc4bfab0	-0.012449905
156	0xbdcb00b0	-0.099122405
157	0xbdc78b25	-0.097433366
158	0xbd8eb366	-0.06967811
159	0x3cde0780	0.027103186
160	0xbda8098c	-0.08204946
161	0x3d480bd2	0.048839398
162	0x3d8e42d2	0.06946339
163	0xbda21fc6	-0.079162166
164	0x3cd98980	0.026554823
165	0xbdb33238	-0.08749813
166	0x3ce56da0	0.028006375
167	0xbdae82fd	-0.08521078
168	0xbdd28c03	-0.10280611
169	0xbc6e5cdf	-0.014548509
170	0x3d3f0606	0.046636604
171	0xbcd06e31	-0.025443168
172	0xbd229e75	-0.039701898
173	0xbd0c502a	-0.034256138
174	0xbc91ed9a	-0.017813493
175	0x3c2269e3	0.009912941
176	0x3dbcb07e	0.09213351
177	0xbe183b63	-0.14866404
178	0x3dbd7cc9	0.092523165
179	0xbd21f0e4	-0.03953637
180	0xbd632278	-0.055452794
181	0xbe123fd7	-0.14282165
182	0xbdf358b4	-0.11882153
183	0xbdb940cb	-0.090455614
184	0xbb4e13c0	-0.0031444877
185	0x3b93bc95	0.0045085647
186	0xbdabb23f	-0.08383607
187	0x3d9be39c	0.076117724
188	0xbd9541cb	-0.0728794
189	0x3d48457d	0.048894394
190	0xbd4a05b4	-0.049321845
191	0x3ac808d5	0.0015261421
192	0x3e1641e6	0.14673576
193	0xbf8bd61b	-1.0924715
194	0x3ef20cbb	0.47275338
195	0x3e0ff9b0	0.14060092
196	0xbf2e8d0c	-0.6818397
197	0x3e65370a	0.22384277
198	0x3f4411aa	0.76589453
199	0x3e723526	0.23653087
200	0x3ddfd4ca	0.10929258
201	0x3ed4a0ad	0.41528836
202	0xbd01ede1	-0.031721
203	0x3f1c6fa8	0.61107874
204	0x3e5e321e	0.21698806
205	0xbecd6eb8	-0.40123534
206	0x3ec5fdb7	0.38670132
207	0x3df4c1a5	0.11950997
208	0x3e95b4c4	0.29239476
209	0x3ede1018	0.43371654
210	0x3f14ec8a	0.5817343
211	0x3e93629d	0.28786173
212	0xbe2e6f46	-0.17034635
213	0x3ebc491c	0.36774528
214	0x3f03dc38	0.515079
215	0x3f54e7fa	0.8316647
216	0x3e2c91ea	0.16852537
217	0x3ec32343	0.3811284
218	0x3f844944	1.0334859
219	0x3f1f7a60	0.62296104
220	0xbea6d1b7	-0.32581875
221	0x3def6d5b	0.1169078
222	0xbdbbc117	-0.09167688
223	0xbd2a6c2b	-0.041607063
224	0x3e83db93	0.2575346
225	0x3e362c3c	0.17790312
226	0x3e22fc97	0.15916668
227	0x3e6378b3	0.22214012
228	0x3d6bf815	0.057609636
229	0xbefd31a0	-0.49451923
230	0x3e8027f0	0.2503047
231	0x3df15ec6	0.11785655
232	0x3e3e1f84	0.1856671
233	0x3e806e25	0.25084034
234	0x3c8d2c1e	0.01723295
235	0x3eb01c31	0.34396508
236	0xbeda771b	-0.42668995
237	0x3ef07ea6	0.46971625
238	0x3f06b195	0.5261472
239	0x3f3106c1	0.6915093
240	0x3f0e9cc6	0.5570797
241	0x3e9d2269	0.30690315
242	0x3d1b5b20	0.0379287
243	0x3cea0b35	0.028569797
244	0x3e766c82	0.2406483
245	0xbf235b2b	-0.63810986
246	0xbe9d5686	-0.30730075
247	0xbf55dc41	-0.83539206
248	0x3ed105a3	0.40824613
249	0x3ee1e609	0.44120815
250	0x3e07199f	0.13193367
251	0xbda0087e	-0.0781412
252	0x3e3eef67	0.18646012
253	0x3e323fe7	0.1740719
254	0x3d3e96a4	0.04653038
255	0xbd80b4c4	-0.06284478

fc2.bias f4 [64]
0	0xbe05a450	-0.13050961
1	0x3f0d4761	0.5518704
2	0xbd1c4624	-0.03815283
3	0x3e26a23c	0.16272825
4	0x3d05511c	0.032548055
5	0x3e60ab27	0.2194029
6	0x3cc98c8d	0.024603153
7	0xbd76ad02	-0.060223587
8	0x3cf15165	0.029457757
9	0x3efaab86	0.48958987
10	0xbe0ff371	-0.1405771
11	0x3dc1a6e8	0.09455663
12	0x3d5d7b4e	0.05407267
13	0x3dc7c843	0.09754994
14	0x3d148ad9	0.036265228
15	0x3e7290ac	0.23688
16	0xbdedf24b	-0.11618479
17	0x3e88e897	0.26739952
18	0x3e0dd692	0.13851383
19	0x3c1a0c06	0.009402281
20	0x3e861f94	0.26195967
21	0xbdf4c824	-0.11952236
22	0x3ea50dab	0.3223699
23	0x3f144a60	0.5792599
24	0xbd523714	-0.051322058
25	0x3d9eba24	0.07750347
26	0x3ee92d2d	0.4554228
27	0xbddee799	-0.108840175
28	0xbd863ee4	-0.06554964
29	0x3e907f0b	0.28221926
30	0x3e087b10	0.13328195
31	0x3d666371	0.05624718
32	0xbdee9274	-0.116490275
33	0x3dde4cff	0.108545296
34	0x3dc7c1c5	0.097537555
35	0x3f5a3866	0.8524231
36	0x3e3350ad	0.17511244
37	0x3e86c447	0.26321623
38	0x3db45e5c	0.0880706
39	0x3eec259d	0.46122447
40	0x3e3bf5cc	0.18355483
41	0x3d3d8272	0.04626698
42	0x3db12c7e	0.08651064
43	0xbd8b6e45	-0.068081416
44	0x3e3ff093	0.18744116
45	0xbd81cba6	-0.06337671
46	0x3ef95774	0.48699534
47	0x3df29931	0.11845625
48	0x3df9f0d6	0.12204139
49	0x39d61800	0.00040835142
50	0x3dd7f947	0.10545593
51	0xbc78a86d	-0.015176875
52	0x3e89a7cf	0.2688584
53	0x3e628425	0.22120722
54	0x3d5294fa	0.051411606
55	0x3f25757d	0.646324
56	0x3e8fc5c0	0.2808056
57	0x3e26321e	0.16230056
58	0x3e16a5b2	0.14711645
59	0x3e7e1aa4	0.2481485
60	0x3e469028	0.19390929
61	0xbe1c37fe	-0.15255734
62	0xbd5c9a37	-0.05385801
63	0x3e2e5c5a	0.17027417

fc3.weight f4 [1, 64]
0	0x397a9692	0.0002389795
1	0x3fbb35db	1.462581
2	0x3d67c0f7	0.05658051
3	0xbf0ec157	-0.55763763
4	0xbee9e0c9	-0.4567931
5	0xbefbaae0	-0.49153805
6	0x3dacae66	0.08431701
7	0x3d65916d	0.056046892
8	0xbc07d1ee	-0.008289797
9	0x402d3870	2.7065697
10	0x3ccb83c4	0.024843104
11	0xbefa60f0	-0.48902082
12	0xbeeb7e76	-0.4599492
13	0xbef7a008	-0.48364282
14	0xbeae8564	-0.34086144
15	0xbf0aca47	-0.542149
16	0x3c82c360	0.015962303
17	0xbece49b7	-0.40290615
18	0xbebaa99b	-0.36457524
19	0xbeecdbfb	-0.46261582
20	0xbff7c62c	-1.9357352
21	0x3c6a4a32	0.014299916
22	0xbee870df	-0.45398614
23	0x406da9c2	3.7134862
24	0x3da9dd47	0.082941584
25	0x3f787790	0.9705744
26	0x3fccf53b	1.6012338
27	0xbc9228de	-0.017841753
28	0x3db0eb4d	0.0863863
29	0xbf001a62	-0.50040257
30	0xbf061d8e	-0.52388847
31	0xbed48a2f	-0.41511676
32	0xbdbf0a6a	-0.09328158
33	0xbec443a7	-0.38332865
34	0x3fbde246	1.4834678
35	0x408bf03f	4.373077
36	0xbefd5569	-0.49479225
37	0x3fa7dbb2	1.3113921
38	0x3d800f2a	0.06252892
39	0x3fadb46a	1.3570683
40	0xbf119e12	-0.5688182
41	0x3dc72076	0.09722988
42	0xbecf83c8	-0.4053023
43	0x3fe5eb39	1.7962409
44	0xbed84c58	-0.42245746
45	0x3d16f2f4	0.036852792
46	0x40056d96	2.0848136
47	0xbfc00f5c	-1.5004687
48	0xbecf8a47	-0.40535185
49	0x3dcd031a	0.10010357
50	0xbf0cdcb2	-0.55024254
51	0x3d1c2437	0.038120475
52	0xbf3ffcd4	-0.7499516
53	0xbec95796	-0.39324635
54	0x3d370e9d	0.04469167
55	0x4065481e	3.5825267
56	0xbefc86a1	-0.49321464
57	0xbec79c4e	-0.3898644
58	0xbf017af7	-0.50578254
59	0xbf227fb0	-0.63476086
60	0xbedfde73	-0.43724403
61	0xc044a74c	-3.072711
62	0x3d123f9a	0.035705186
63	0xbf1be12e	-0.6089047
