MachineLearning/DeepQLearning/frozen_lake_dql.pt (torch, 3472 bytes, 4 tensors)

fc1.weight f4 [16, 16]
-0.23832822 0.11859299 -0.1192389 -0.06968298 -0.14114481 0.044117868 -0.09307423 -0.14731267
-0.24731186 0.46925864 -0.23448077 0.08594668 -0.22065628 -0.1570255 0.49759355 0.19234195
-0.023078017 0.014742174 0.019453898 -0.013044447 -0.07287538 0.24857163 -0.028167164 -0.020733356
0.3339394 -0.25862688 0.05060578 -0.2462453 -0.028044194 0.49308378 0.45500603 -0.16903731
0.09025891 -0.18624753 -0.18268743 0.08987906 -0.11997986 -0.028754234 0.24579708 0.049211234
-0.12611236 0.25160187 0.11750635 0.16711098 -0.1817478 0.68711835 -0.13455474 0.09458771
-0.02196373 0.02457019 -0.13675313 0.085291274 -0.009820906 -0.14921364 -0.30648577 -0.14449024
0.42581642 0.04476496 -0.022958262 0.19218814 0.014438897 0.3137649 0.4753671 -0.09579879
0.19344836 0.10495484 0.113182425 0.19601947 0.12555629 -0.18523604 -0.024227977 -0.20420113
0.062256843 -0.014559984 -0.12127596 -0.17268318 -0.069028944 -0.17919731 0.14250734 0.08205247
0.13880524 -0.31375128 0.04487032 -0.4600819 0.19377705 -0.10186067 0.004482476 0.11828047
-0.28389156 0.16587345 0.32115567 -0.2168583 0.1891869 0.22286128 0.32448786 -0.1815213
-0.14039086 0.36812484 -0.092143096 0.29978013 -0.27735588 0.021061301 -0.03786229 -0.067047
0.21291973 -0.302327 -0.3409474 -0.22760928 -0.14927855 0.38996506 0.23384975 0.12529624
-0.14580867 0.22436638 0.16907552 -0.09739721 -0.13020611 0.02298057 -0.11243263 -0.24205959
-0.13263428 -0.02526626 -0.09060502 0.21072263 0.22663653 -0.23256391 0.03299895 0.06144312
0.26063868 -0.113030285 0.29535443 -0.12821648 -0.16577777 0.22286862 -0.12211767 -0.1187987
0.37112054 -0.04646296 -0.038777508 -0.10421902 -0.09352815 -0.13583842 -0.21934167 0.11634943
-0.21229964 0.043268513 -0.1283853 0.19880015 0.115916625 -0.17680159 -0.07103776 -0.11997548
0.11596342 -0.07049055 -0.06773198 0.122179836 -0.033773214 0.003940518 -0.06615511 -0.029431283
0.122723006 -0.23472813 -0.0077975993 0.0031618979 -0.20370045 0.06270209 -0.15786026 -0.06074226
0.5170435 0.30106208 -0.11088884 -0.19546878 -0.0568493 0.021951325 -0.1941219 -0.22798458
-0.04550156 -0.08347449 -0.1972506 -0.17237356 0.06881094 -0.19467986 0.13626379 0.080402166
-0.23686755 -0.16188034 0.13323072 -0.14774 0.115756124 0.1270009 -0.17039484 0.13173592
0.21192317 0.18086052 0.05938226 0.24316248 0.026034921 0.19171563 -0.07432461 -0.0379079
-0.23917145 -0.13069662 -0.16448343 0.16904637 0.22475183 0.08738126 0.09365681 0.2256934
0.1853561 -0.14586979 -0.17269912 -0.104263395 0.09382049 0.07296157 -0.16781482 0.010334104
0.05397826 0.01249526 -0.049236547 0.16695845 0.06250149 -0.15125495 -0.11759624 -0.1692054
0.12786166 -0.078643315 0.16930352 0.077574395 0.09512414 0.048350424 -0.1625813 -0.0086297095
0.15317532 -0.10159829 -0.24650717 0.22443128 -0.088635415 -0.08919286 -0.100881435 -0.23122439
0.1515259 0.011564732 -0.0669201 -0.11586732 0.1067653 -0.11322108 -0.22026938 0.24759719
0.021717459 0.06128049 0.1470056 -0.062595755 0.056552052 0.31024346 0.14527541 0.09557408
00000000: 500c 74be e2e0 f23d 8633 f4bd f3b5 8ebd
00000010: 4488 10be f0b4 343d b49d bebd 22d9 16be
00000020: 523f 7dbe ab42 f03e ba1b 70be d004 b03d
00000030: b8f3 61be 4bcb 20be 95c4 fe3e 4af5 443e
00000040: 1c0e bdbc 2989 713c c85d 9f3c 60b8 55bc
00000050: b03f 95bd 9089 7e3e d3be e6bc 00d9 a9bc
00000060: 1bfa aa3e be6a 84be 0248 4f3d ba27 7cbe
00000070: f0bc e5bc 7a75 fc3e 8df6 e83e 1e18 2dbe
00000080: aad9 b83d acb7 3ebe 6a12 3bbe 8312 b83d
00000090: 00b8 f5bd 008e ebbc 3bb2 7b3e b891 493d
000000a0: 9923 01be f6d1 803e 2ba7 f03d 241f 2b3e
000000b0: 181c 3abe fde6 2f3f b8c8 09be 34b7 c13d
000000c0: 48ed b3bc 6c47 c93c 0309 0cbe 31ad ae3d
000000d0: dee7 20bc 76cb 18be b4eb 9cbe 40f5 13be
000000e0: 9c04 da3e 765b 373d f712 bcbc f8cc 443e
000000f0: 2091 6c3c cba5 a03e 5163 f33e 2832 c4bd
00000100: 5417 463e 90f2 d63d 30cc e73d 54b9 483e
00000110: d491 003e 84ae 3dbe c079 c6bc 1a1a 51be
00000120: 0801 7f3d 008d 6ebc 885f f8bd dcd3 30be
00000130: 0c5f 8dbd 807f 37be 72ed 113e 200b a83d
00000140: f622 0e3e 02a4 a0be f1c9 373d db8f ebbe
00000150: 7e6d 463e 549c d0bd bce1 923b 083d f23d
00000160: 3c5a 91be bbda 293e 846e a43e 1a10 5ebe
00000170: 36ba 413e bf35 643e 4623 a63e b8e0 39be
00000180: 9fc2 0fbe dc7a bc3e 85b5 bcbd c87c 993e
00000190: 9701 8ebe c088 ac3c 7d15 1bbd f04f 89bd
000001a0: a107 5a3e 9bca 9abe a890 aebe 6812 69be
000001b0: 7adc 18be 80a9 c73e 4f76 6f3e a84d 003e
000001c0: de4e 15be 4dc0 653e 2222 2d3e 3078 c7bd
000001d0: c054 05be c041 bc3c 1443 e6bd 78de 77be
000001e0: 48d1 07be 30fb cebc 208f b9bd acc7 573e
000001f0: 6813 683e 3c25 6ebe e829 073d c8ab 7b3d
00000200: 6f72 853e 6c7c e7bd b238 973e 2e4b 03be
00000210: a6c1 29be ac37 643e d418 fabd bc4c f3bd
00000220: 8303 be3e f24f 3ebd 2ad5 1ebd c870 d5bd
00000230: b08b bfbd 3a19 0bbe 1a9b 60be 9c48 ee3d
00000240: 1465 59be 533a 313d 7077 03be 4492 4b3e
00000250: b265 ed3d 7a0b 35be 3f7c 91bd b4b5 f5bd
00000260: 3b7e ed3d 595d 90bd 10b7 8abd 6c39 fa3d
00000270: c855 0abd 761f 813b 557c 87bd e019 f1bc
00000280: 3356 fb3d 925c 70be 0183 ffbb d837 4f3b
00000290: da96 50be f469 803d 1fa6 21be e0cc 78bd
000002a0: f65c 043f cf24 9a3e b019 e3bd f828 48be
000002b0: d0da 68bd 44d3 b33c e4c7 46be ca74 69be
000002c0: d85f 3abd acf4 aabd 10fc 49be b282 30be
000002d0: c0ec 8c3d 285a 47be bc88 0b3e e4a9 a43d
000002e0: 688d 72be f6c3 25be a26d 083e 2849 17be
000002f0: 8c11 ed3d 860c 023e fc7b 2ebe c8e5 063e
00000300: 6302 593e 8033 393e d03a 733d 96ff 783e
00000310: 3047 d53c 1a51 443e 8037 98bd 5045 1bbd
00000320: 5ce9 74be 56d5 05be 586e 28be 7e1a 2d3e
00000330: 5825 663e f2f4 b23d 24cf bf3d 2c1c 673e
00000340: fdcd 3d3e e45e 15be 0ad8 30be 0c88 d5bd
00000350: f524 c03d e06c 953d a6d7 2bbe 6050 293c
00000360: 4f18 5d3d ebb8 4c3c 43ac 49bd 28f7 2a3e
00000370: c800 803d 94e2 1abe 4cd6 f0bd 2e44 2dbe
00000380: 2bee 023e bf0f a1bd e75d 2d3e 53df 9e3d
00000390: 72d0 c23d 180b 463d b67b 26be a063 0dbc
000003a0: fed9 1c3e c412 d0bd 606c 7cbe 50d1 653e
000003b0: 7c86 b5bd bfaa b6bd ed9a cebd 16c6 6cbe
000003c0: 9b29 1b3e 007a 3d3c 680d 89bd d84b edbd
000003d0: c4a7 da3d 74e0 e7bd 4c8e 61be 1e8a 7d3e
000003e0: d0e8 b13c 4001 7b3d a388 163e 3432 80bd
000003f0: 20a3 673d 3bd8 9e3e 14c3 143e 58bc c33d

fc1.bias f4 [16]
0.14253964 0.365401 0.1178709 0.3297014 -0.20347843 0.46966642 0.3296432 -0.2306454
0.052768018 0.06623962 0.1773034 -0.23538175 -0.10606446 0.032526042 0.10019267 -0.14988081
00000000: e9f5 113e d715 bb3e 4c66 f13d 9fce a83e
00000010: a65c 50be 1e78 f03e fec6 a83e 4f2e 6cbe
00000020: 4723 583d a3a8 873d 068f 353e ea07 71be
00000030: 5338 d9bd 073a 053d d131 cd3d 5b7a 19be

out.weight f4 [4, 16]
0.3639977 -0.10713675 -0.46558136 0.25442463 -0.17682382 0.18039256 -0.030051228 -0.10487247
0.16416436 0.12130345 0.12806901 -0.07033399 0.1303903 0.1895455 -0.031538237 -0.4823888
0.23685789 0.15757358 0.2395585 -0.0015961438 -0.03588416 0.7509842 -0.24954854 0.052578628
-0.14870983 -0.2585306 -0.18938811 0.14701545 -0.06514433 0.27458164 -0.19772528 0.25666177
0.43066844 0.39635634 0.19429915 0.24693146 0.03061798 0.19269018 0.22616741 -0.22172064
0.23792179 -0.037674196 0.14491893 0.044156432 -0.11106329 0.19274877 -0.1548767 -0.008184624
-0.15131865 0.421945 0.0070323125 0.2155047 -0.098367706 0.22664906 0.27535105 0.12432827
0.28187653 -0.011084269 -0.1680092 0.16954812 0.20711026 0.33188048 0.111553535 -0.18152702
00000000: e85d ba3e 836a dbbd ae60 eebe f243 823e
00000010: 4e11 35be d4b8 383e fe2d f6bc 61c7 d6bd
00000020: b41a 283e f16d f83d 8624 033e 440b 90bd
00000030: 0985 053e 3718 423e 3d2e 01bd aafb f6be
00000040: e08a 723e f85a 213e d34e 753e b335 d1ba
00000050: 45fb 12bd 8040 403f a789 7fbe b05c 573d
00000060: 6447 18be 1f5e 84be f5ee 41be 388b 163e
00000070: 646a 85bd f795 8c3e 7f78 4abe 2c69 833e
00000080: 9380 dc3e 38ef ca3e 5bf6 463e 9adb 7c3e
00000090: 8fd2 fa3c 9350 453e 6e98 673e bc0a 63be
000000a0: c5a1 733e 4250 1abd a165 143e 60dd 343d
000000b0: 2675 e3bd ef5f 453e ff97 1ebe cd18 06bc
000000c0: 47f3 1abe 2d09 d83e 506f e63b 44ad 5c3e
000000d0: 0275 c9bd b116 683e d0fa 8c3e d29f fe3d
000000e0: 1f52 903e cb9a 35bc 9b0a 2cbe 069e 2d3e
000000f0: b614 543e 3dec a93e 2e76 e43d 38e2 39be

out.bias f4 [4]
0.3461661 0.16016659 -0.07996083 -0.044002626
00000000: af3c b13e b602 243e 81c2 a3bd 193c 34bd
