MachineLearning/DeepQLearning/frozen_lake_dql.pt (torch, 3472 bytes, 4 tensors)

fc1.weight f4 [16, 16]
-0.03377962 0.1442352 0.19766638 0.1846646 0.080236346 -0.21835265 -0.16144797 0.08333865
0.15393335 0.109224975 0.017229825 0.1162456 -0.09291646 0.07006621 0.108780414 0.17691734
0.28666708 -0.15548798 -0.16548535 -0.22576253 -0.23734877 -0.19264129 -0.14407879 -0.1402184
0.0013876308 0.4620896 -0.053868186 0.022422194 0.24435478 0.155196 0.35324568 -0.19299921
-0.11166219 0.11012105 -0.17640528 0.12575962 -0.2508787 0.09089145 -0.19710042 0.17910388
0.40421522 -0.10521458 -0.24183533 -0.10264069 -0.21206635 -0.2382356 -0.23630218 -0.0661979
-0.037769735 0.39705035 0.2719969 0.14083375 -0.1977585 -0.19092306 0.022202551 -0.24240631
0.3006361 -0.18057624 0.083916135 0.030676126 0.13921243 0.0050982833 -0.076117724 -0.07614905
-0.15217239 -0.12459993 0.014266461 0.08394033 -0.015453428 -0.080372214 0.1693686 0.1276347
-0.16830632 -0.14402542 0.08236742 -0.099304795 -0.10042891 -0.013220817 -0.22142056 0.16276586
0.21874887 0.176133 -0.0127207935 -0.23997042 0.06158918 0.029548496 0.06325108 -0.107569635
-0.046284616 0.020180643 0.21131343 -0.19246921 0.033261687 -0.12093723 0.22492388 -0.010123104
0.026140153 -0.19308645 -0.1246803 -0.18237555 -0.14885011 0.24458957 -0.13120711 0.005850762
-0.11008345 0.29798892 -0.045591637 -0.19789404 -0.08116013 0.07550499 0.34933397 -0.0481669
0.28040427 0.13973261 0.021955086 -0.046880007 -0.2078194 -0.11322451 -0.053281426 -0.17926905
-0.090146154 0.020239191 -0.0459705 -0.16331634 0.028333098 0.024137016 -0.16261855 0.05044821
-0.1042628 0.15470171 0.059925795 0.11814174 -0.04813531 0.22623947 0.032868534 -0.1314278
-0.072414726 0.16531111 0.107034355 0.006085217 -0.10008907 0.13883844 -0.15042481 0.014627129
0.23237327 -0.24547532 0.1372493 -0.24465153 0.18948728 -0.008156955 0.033030488 0.10174209
0.35161513 0.10740995 0.19847304 -0.09238514 0.24354947 0.14848356 0.43431193 0.17560413
-0.045321316 -0.040568758 -0.062469102 -0.062418055 -0.09608103 0.23425153 -0.2573637 0.24469998
0.3503564 0.21774676 0.13136554 0.14462468 -0.12267667 0.1640078 0.2606052 0.18401301
0.24128792 0.08795029 0.21539205 -0.024881184 0.032945693 0.019792795 0.06459704 -0.14374536
0.16410953 0.13981003 -0.19033286 -0.027549475 -0.2427274 0.16026601 -0.19876832 0.24846327
-0.20221347 0.3987797 -0.16703093 -0.023166714 0.060916428 0.07366055 -0.13439427 -0.073474854
-0.20239115 -0.07419518 -0.14190634 -0.1610089 0.08000022 0.10949269 0.3561303 0.04627517
0.02026239 -0.19183019 -0.1677463 -0.15880226 0.41442335 0.056921035 0.15684545 -0.11776078
-0.31331065 0.025892178 0.6708705 0.19445696 -0.15297201 -0.15523434 -0.06362903 -0.0287942
0.048326254 0.032359183 0.20923138 0.113922864 0.0630565 -0.003677994 0.095528394 0.15482286
0.05545312 0.17503577 0.19947615 0.24844256 0.15012395 -0.16824865 -0.089175045 0.20159206
-0.01041724 -0.14868726 -0.1576778 -0.0032404088 -0.14196622 0.13881391 -0.20364758 -0.086456
-0.18972158 0.019298434 -0.11268104 0.15547684 0.21946621 0.64167655 -0.050370734 0.23334664
00000000: 805c 0abd 64b2 133e 0e69 4a3e b818 3d3e
00000010: f452 a43d d697 5fbe 9e52 25be 74ad aa3d
00000020: b4a0 1d3e 58b1 df3d 9025 8d3c 2c12 ee3d
00000030: fc4a bebd e07e 8f3d 44c8 de3d d229 353e
00000040: 07c6 923e 3e38 1fbe fe74 29be 4b2e 67be
00000050: 8e0b 73be c243 45be 6489 13be 6a95 0fbe
00000060: 2ae1 b53a 0297 ec3e e3a4 5cbd c0ae b73c
00000070: 2438 7a3e b3eb 1e3e 9edc b43e 96a1 45be
00000080: 25af e4bd 2587 e13d 96a3 34be 21c7 003e
00000090: 2c73 80be 4c25 ba3d b1d4 49be 0267 373e
000000a0: 4cf5 ce3e be7a d7bd aea3 77be 4835 d2bd
000000b0: ec27 59be 08f4 73be 33f9 71be c492 87bd
000000c0: 70b4 1abd 2f4a cb3e 2d43 8b3e b936 103e
000000d0: 3481 4abe 5681 43be 20e2 b53c 5c39 78be
000000e0: faec 993e fae8 38be 39dc ab3d 804c fb3c
000000f0: b48d 0e3e 800f a73b 9ce3 9bbd 08f4 9bbd
00000100: 14d3 1bbe 402e ffbd e0bd 693c e8e8 ab3d
00000110: 6030 7dbc 309a a4bd f66e 2d3e acb2 023e
00000120: 7e58 2cbe 667b 13be 40b0 a83d 5060 cbbd
00000130: acad cdbd 209c 58bc 12bc 62be 18ac 263e
00000140: b4ff 5f3e 365c 343e e06a 50bc ceba 75be
00000150: f044 7c3d b00f f23c c889 813d 784d dcbd
00000160: f094 3dbd e051 a53c 8c62 583e a616 45be
00000170: 683d 083d f0ad f7bd 7252 663e 60db 25bc
00000180: e023 d63c 74b8 45be 6358 ffbd a8c0 3abe
00000190: 2a6c 18be b075 7a3e 285b 06be c0b7 bf3b
000001a0: 6f73 e1bd 0192 983e 4cbe 3abd bca4 4abe
000001b0: 4837 a6bd 5ca2 9a3d e7db b23e a84a 45bd
000001c0: 2691 8f3e 1116 0f3e 27db b33c 4005 40bd
000001d0: 9cce 54be 40e2 e7bd a03d 5abd 4e92 37be
000001e0: 8c9e b8bd a9cc a53c 904b 3cbd 663c 27be
000001f0: d01a e83c feba c53c 7a85 26be c8a2 4e3d
00000200: bc87 d5bd 206a 1e3e c074 753d 4cf4 f13d
00000210: 8829 45bd 52ab 673e 28a1 063d 0295 06be
00000220: 2c4e 94bd 5147 293e d434 db3d 8066 c73b
00000230: 80fb ccbd aa2b 0e3e f608 1abe a0a6 6f3c
00000240: 42f3 6d3e e25d 7bbe 158b 0c3e ee85 7abe
00000250: f408 423e c0a4 05bc fa4a 073d 285e d03d
00000260: e606 b43e bff9 db3d 843c 4b3e 6c34 bdbd
00000270: 0865 793e 130c 183e 225e de3e 92d1 333e
00000280: d8a2 39bd 6d2b 26bd 9adf 7fbd 13aa 7fbd
00000290: 22c6 c4bd a2df 6f3e 2dc5 83be a292 7a3e
000002a0: ea61 b33e 02f9 5e3e b084 063e 7e18 143e
000002b0: e83d fbbd a9f1 273e 0b6e 853e e86d 3c3e
000002c0: 2e14 773e 481f b43d bc8f 5c3e a0d3 cbbc
000002d0: 10f2 063d 8024 a23c 744b 843d fc31 13be
000002e0: 540c 283e 5c2a 0f3e 9ee6 42be 70af e1bc
000002f0: 888d 78be c61c 243e ec89 4bbe 286d 7e3e
00000300: 0c11 4fbe da2c cc3e 280a 2bbe 1fc8 bdbc
00000310: 8183 793d 58db 963d a79e 09be fc79 96bd
00000320: a03f 4fbe a4f3 97bd e54f 11be 84df 24be
00000330: 28d7 a33d b43d e03d b656 b63e 088b 3d3d
00000340: 50fd a53c 226f 44be b0c5 2bbe 0f9d 22be
00000350: 4c2f d43e 0826 693d 189c 203e 902c f1bd
00000360: 416a a0be d51b d43c 2bbe 2b3f ba1f 473e
00000370: b2a4 1cbe c0f5 1ebe f04f 82bd d0e1 ebbc
00000380: c0f1 453d 108b 043d c040 563e 6450 e93d
00000390: c423 813d 800a 71bb 64a4 c33d e289 1e3e
000003a0: d022 633d 943c 333e 7a43 4c3e ba67 7e3e
000003b0: 18ba 193e 6049 2cbe 68a1 b6bd 266e 4e3e
000003c0: 12ad 2abc 7941 18be 4a76 21be 0a5d 54bb
000003d0: 985f 11be 3c25 0e3e fe88 50be d80f b1bd
000003e0: 6046 42be c017 9e3c 51c5 e6bd 5235 1f3e
000003f0: c0bb 603e ea44 243f 8b51 4ebd 6cf2 6e3e

fc1.bias f4 [16]
-0.24109316 0.24659342 0.23934928 -0.028573161 -0.17320248 -0.24816522 0.10946601 -0.061029218
-0.16851597 0.21955013 0.58366144 -0.24709755 0.096774265 0.30425826 -0.21093512 0.14203088
00000000: 20e1 76be fc82 7c3e fa17 753e 4312 eabc
00000010: fe5b 31be 061f 7ebe b72f e03d c6f9 79bd
00000020: 738f 2cbe c0d1 603e d66a 153f 2407 7dbe
00000030: 9631 c63d bdc7 9b3e 60ff 57be 8b70 113e

out.weight f4 [4, 16]
0.16409221 0.17639416 0.0043594153 0.43738064 0.16393793 -0.16982162 0.043631546 0.09758019
-0.16232751 0.3881292 0.298309 0.106342524 0.36053783 0.34467483 0.108954936 -0.34771147
-0.193589 0.25550658 -0.34065345 -0.18467085 -0.09931943 0.23812273 0.40874314 -0.12569298
0.063746326 0.16493 0.17794262 -0.07653555 0.06805103 0.5507387 -0.038628966 0.25185934
-0.025428146 0.4317039 0.27797255 -0.10211395 0.00037628412 0.15480202 0.47712445 -0.26544598
-0.08496547 0.3146512 0.31035173 0.09021461 0.31570464 -0.4540609 -0.06763592 0.3944937
-0.06391373 -0.0060304776 0.030879477 -0.010079957 0.23482543 0.2108554 -0.062165663 0.40291625
-0.15661412 0.39823252 0.18359463 -0.18070838 0.3591696 0.053765215 0.032155424 0.10633174
00000000: ca07 283e aca0 343e 6dd9 8e3b 5bf0 df3e
00000010: 58df 273e b8e5 2dbe feb6 323d 1fd8 c73d
00000020: 2f39 26be dfb8 c63e f5bb 983e 1cca d93d
00000030: 6a98 b83e 3879 b03e c423 df3d 3d07 b2be
00000040: 323c 46be c2d1 823e 216a aebe 5b1a 3dbe
00000050: fc67 cbbd 72d6 733e c846 d13e a9b5 00be
00000060: 6f8d 823d 69e3 283e 9736 363e acbe 9cbd
00000070: 575e 8b3d 36fd 0c3f 6839 1ebd b5f3 803e
00000080: b04e d0bc 4b08 dd3e 6b52 8e3e 1e21 d1bd
00000090: 0048 c539 6c84 1e3e a849 f43e 89e8 87be
000000a0: 6002 aebd f619 a13e 6ce6 9e3e 70c2 b83d
000000b0: 0aa4 a13e ac7a e8be b484 8abd 14fb c93e
000000c0: 34e5 82bd 509b c5bb f5f6 fc3c 6726 25bc
000000d0: 1476 703e 7aea 573e 6ca1 7ebd 0a4b ce3e
000000e0: 745f 20be 22e5 cb3e 3b00 3c3e 9e0b 39be
000000f0: 14e5 b73e ea38 5c3d 68b5 033d 75c4 d93d

out.bias f4 [4]
-0.025233964 0.0783752 -0.014866122 0.17520131
00000000: 75b7 cebc 2d83 a03d 0991 73bc f967 333e
